…
	activation=relu
	dropout=0.3
train:
	accelerator=gpu
	ann=None
	batch_size=512
	early_stop_mode=min
	early_stop_patience=10
	epochs=1000
	gpu=[3]
	grad_clip_norm=None
	init_method=xavier_normal
	item_batch_size=1024
	learner=adam
	learning_rate=0.001
	num_threads=10
	sampling_method=none
	sampler=uniform
	negative_count=0
	excluding_hist=False
	scheduler=None
	seed=2022
	weight_decay=0.0
	tensorboard_path=None
[2023-06-17 21:53:05] INFO save_dir:./saved/
[2023-06-17 21:53:05] INFO WideDeep(
  (loss_fn): BCEWithLogitLoss()
  (linear): LinearLayer(
    bias=True
    (embeddings): ModuleDict(
      (f_16): Embedding(11, 1, padding_idx=0)
      (f_43): DenseEmbedding(
        embedding_dim=1, bias=False, batch_norm=True
        (batch_norm_layer): BatchNorm1d(1, eps=1e-05, momentum=0.1, affine=True, track_running_stats=True)
        (weight): Linear(in_features=1, out_features=1, bias=False)
      )
      (f_18): Embedding(543, 1, padding_idx=0)
      (f_34): Embedding(3, 1, padding_idx=0)
      (f_3): Embedding(6, 1, padding_idx=0)
      (f_66): DenseEmbedding(
        embedding_dim=1, bias=False, batch_norm=True
        (batch_norm_layer): BatchNorm1d(1, eps=1e-05, momentum=0.1, affine=True, track_running_stats=True)
        (weight): Linear(in_features=1, out_features=1, bias=False)
      )
      (f_48): Embedding(21, 1, padding_idx=0)
      (f_61): Embedding(584, 1, padding_idx=0)
      (f_32): Embedding(5, 1, padding_idx=0)
      (f_13): Embedding(206, 1, padding_idx=0)
      (f_30): Embedding(3, 1, padding_idx=0)
      (f_50): Embedding(22, 1, padding_idx=0)
      (f_23): Embedding(5, 1, padding_idx=0)
      (f_5): Embedding(7, 1, padding_idx=0)
      (f_57): Embedding(415, 1, padding_idx=0)
      (f_64): DenseEmbedding(
        embedding_dim=1, bias=False, batch_norm=True
        (batch_norm_layer): BatchNorm1d(1, eps=1e-05, momentum=0.1, affine=True, track_running_stats=True)
        (weight): Linear(in_features=1, out_features=1, bias=False)
      )
      (f_4): Embedding(631, 1, padding_idx=0)
      (f_59): DenseEmbedding(
        embedding_dim=1, bias=False, batch_norm=True
        (batch_norm_layer): BatchNorm1d(1, eps=1e-05, momentum=0.1, affine=True, track_running_stats=True)
        (weight): Linear(in_features=1, out_features=1, bias=False)
      )
      (f_26): Embedding(3, 1, padding_idx=0)
      (f_37): Embedding(3, 1, padding_idx=0)
      (f_69): DenseEmbedding(
        embedding_dim=1, bias=False, batch_norm=True
        (batch_norm_layer): BatchNorm1d(1, eps=1e-05, momentum=0.1, affine=True, track_running_stats=True)
        (weight): Linear(in_features=1, out_features=1, bias=False)
      )
      (f_62): Embedding(1032, 1, padding_idx=0)
      (f_36): Embedding(3, 1, padding_idx=0)
      (f_46): Embedding(11, 1, padding_idx=0)
      (f_31): Embedding(3, 1, padding_idx=0)
      (f_45): Embedding(19, 1, padding_idx=0)
      (f_24): Embedding(5, 1, padding_idx=0)
      (f_68): DenseEmbedding(
        embedding_dim=1, bias=False, batch_norm=True
        (batch_norm_layer): BatchNorm1d(1, eps=1e-05, momentum=0.1, affine=True, track_running_stats=True)
        (weight): Linear(in_features=1, out_features=1, bias=False)
      )
      (f_56): Embedding(182, 1, padding_idx=0)
      (f_49): Embedding(15, 1, padding_idx=0)
      (f_67): DenseEmbedding(
        embedding_dim=1, bias=False, batch_norm=True
        (batch_norm_layer): BatchNorm1d(1, eps=1e-05, momentum=0.1, affine=True, track_running_stats=True)
        (weight): Linear(in_features=1, out_features=1, bias=False)
      )
      (f_38): Embedding(3, 1, padding_idx=0)
      (f_19): Embedding(20, 1, padding_idx=0)
      (f_40): Embedding(3, 1, padding_idx=0)
      (f_44): Embedding(18, 1, padding_idx=0)
      (f_52): Embedding(133, 1, padding_idx=0)
      (f_74): Embedding(5, 1, padding_idx=0)
      (f_75): Embedding(32, 1, padding_idx=0)
      (f_60): Embedding(232, 1, padding_idx=0)
      (f_71): Embedding(5, 1, padding_idx=0)
      (f_2): Embedding(136, 1, padding_idx=0)
      (f_70): DenseEmbedding(
        embedding_dim=1, bias=False, batch_norm=True
        (batch_norm_layer): BatchNorm1d(1, eps=1e-05, momentum=0.1, affine=True, track_running_stats=True)
        (weight): Linear(in_features=1, out_features=1, bias=False)
      )
      (f_42): Embedding(6725, 1, padding_idx=0)
      (f_79): Embedding(7, 1, padding_idx=0)
      (f_21): Embedding(35, 1, padding_idx=0)
      (f_22): Embedding(25, 1, padding_idx=0)
      (f_17): Embedding(42, 1, padding_idx=0)
      (f_76): Embedding(9, 1, padding_idx=0)
      (f_78): Embedding(11, 1, padding_idx=0)
      (f_41): Embedding(3, 1, padding_idx=0)
      (f_35): Embedding(3, 1, padding_idx=0)
      (f_9): Embedding(8, 1, padding_idx=0)
      (f_11): Embedding(25, 1, padding_idx=0)
      (f_55): Embedding(306, 1, padding_idx=0)
      (f_47): Embedding(21, 1, padding_idx=0)
      (f_12): Embedding(25, 1, padding_idx=0)
      (f_73): Embedding(9, 1, padding_idx=0)
      (f_8): Embedding(7, 1, padding_idx=0)
      (f_10): Embedding(4, 1, padding_idx=0)
      (f_63): Embedding(298, 1, padding_idx=0)
      (f_53): Embedding(85, 1, padding_idx=0)
      (f_1): DenseEmbedding(
        embedding_dim=1, bias=False, batch_norm=True
        (batch_norm_layer): BatchNorm1d(1, eps=1e-05, momentum=0.1, affine=True, track_running_stats=True)
        (weight): Linear(in_features=1, out_features=1, bias=False)
      )
      (f_65): DenseEmbedding(
        embedding_dim=1, bias=False, batch_norm=True
        (batch_norm_layer): BatchNorm1d(1, eps=1e-05, momentum=0.1, affine=True, track_running_stats=True)
        (weight): Linear(in_features=1, out_features=1, bias=False)
      )
      (f_15): Embedding(4277, 1, padding_idx=0)
      (f_6): Embedding(4455, 1, padding_idx=0)
      (f_14): Embedding(19, 1, padding_idx=0)
      (f_72): Embedding(12, 1, padding_idx=0)
      (f_39): Embedding(3, 1, padding_idx=0)
      (f_58): DenseEmbedding(
        embedding_dim=1, bias=False, batch_norm=True
        (batch_norm_layer): BatchNorm1d(1, eps=1e-05, momentum=0.1, affine=True, track_running_stats=True)
        (weight): Linear(in_features=1, out_features=1, bias=False)
      )
      (f_20): Embedding(56, 1, padding_idx=0)
      (f_77): Embedding(5, 1, padding_idx=0)
      (f_25): Embedding(4, 1, padding_idx=0)
      (f_51): Embedding(1725, 1, padding_idx=0)
      (f_54): Embedding(172, 1, padding_idx=0)
      (f_33): Embedding(3, 1, padding_idx=0)
    )
  )
  (embedding): Embeddings(
    num_features=75, embed_dim=10, reduction=mean
    (embeddings): ModuleDict(
      (f_16): Embedding(11, 10, padding_idx=0)
      (f_43): DenseEmbedding(
        embedding_dim=10, bias=False, batch_norm=True
        (batch_norm_layer): BatchNorm1d(1, eps=1e-05, momentum=0.1, affine=True, track_running_stats=True)
        (weight): Linear(in_features=1, out_features=10, bias=False)
      )
      (f_18): Embedding(543, 10, padding_idx=0)
      (f_34): Embedding(3, 10, padding_idx=0)
      (f_3): Embedding(6, 10, padding_idx=0)
      (f_66): DenseEmbedding(
        embedding_dim=10, bias=False, batch_norm=True
        (batch_norm_layer): BatchNorm1d(1, eps=1e-05, momentum=0.1, affine=True, track_running_stats=True)
        (weight): Linear(in_features=1, out_features=10, bias=False)
      )
      (f_48): Embedding(21, 10, padding_idx=0)
      (f_61): Embedding(584, 10, padding_idx=0)
      (f_32): Embedding(5, 10, padding_idx=0)
      (f_13): Embedding(206, 10, padding_idx=0)
      (f_30): Embedding(3, 10, padding_idx=0)
      (f_50): Embedding(22, 10, padding_idx=0)
      (f_23): Embedding(5, 10, padding_idx=0)
      (f_5): Embedding(7, 10, padding_idx=0)
      (f_57): Embedding(415, 10, padding_idx=0)
      (f_64): DenseEmbedding(
        embedding_dim=10, bias=False, batch_norm=True
        (batch_norm_layer): BatchNorm1d(1, eps=1e-05, momentum=0.1, affine=True, track_running_stats=True)
        (weight): Linear(in_features=1, out_features=10, bias=False)
      )
      (f_4): Embedding(631, 10, padding_idx=0)
      (f_59): DenseEmbedding(
        embedding_dim=10, bias=False, batch_norm=True
        (batch_norm_layer): BatchNorm1d(1, eps=1e-05, momentum=0.1, affine=True, track_running_stats=True)
        (weight): Linear(in_features=1, out_features=10, bias=False)
      )
      (f_26): Embedding(3, 10, padding_idx=0)
      (f_37): Embedding(3, 10, padding_idx=0)
      (f_69): DenseEmbedding(
        embedding_dim=10, bias=False, batch_norm=True
        (batch_norm_layer): BatchNorm1d(1, eps=1e-05, momentum=0.1, affine=True, track_running_stats=True)
        (weight): Linear(in_features=1, out_features=10, bias=False)
      )
      (f_62): Embedding(1032, 10, padding_idx=0)
      (f_36): Embedding(3, 10, padding_idx=0)
      (f_46): Embedding(11, 10, padding_idx=0)
      (f_31): Embedding(3, 10, padding_idx=0)
      (f_45): Embedding(19, 10, padding_idx=0)
      (f_24): Embedding(5, 10, padding_idx=0)
      (f_68): DenseEmbedding(
        embedding_dim=10, bias=False, batch_norm=True
        (batch_norm_layer): BatchNorm1d(1, eps=1e-05, momentum=0.1, affine=True, track_running_stats=True)
        (weight): Linear(in_features=1, out_features=10, bias=False)
      )
      (f_56): Embedding(182, 10, padding_idx=0)
      (f_49): Embedding(15, 10, padding_idx=0)
      (f_67): DenseEmbedding(
        embedding_dim=10, bias=False, batch_norm=True
        (batch_norm_layer): BatchNorm1d(1, eps=1e-05, momentum=0.1, affine=True, track_running_stats=True)
        (weight): Linear(in_features=1, out_features=10, bias=False)
      )
      (f_38): Embedding(3, 10, padding_idx=0)
      (f_19): Embedding(20, 10, padding_idx=0)
      (f_40): Embedding(3, 10, padding_idx=0)
      (f_44): Embedding(18, 10, padding_idx=0)
      (f_52): Embedding(133, 10, padding_idx=0)
      (f_74): Embedding(5, 10, padding_idx=0)
      (f_75): Embedding(32, 10, padding_idx=0)
      (f_60): Embedding(232, 10, padding_idx=0)
      (f_71): Embedding(5, 10, padding_idx=0)
      (f_2): Embedding(136, 10, padding_idx=0)
      (f_70): DenseEmbedding(
        embedding_dim=10, bias=False, batch_norm=True
        (batch_norm_layer): BatchNorm1d(1, eps=1e-05, momentum=0.1, affine=True, track_running_stats=True)
        (weight): Linear(in_features=1, out_features=10, bias=False)
      )
      (f_42): Embedding(6725, 10, padding_idx=0)
      (f_79): Embedding(7, 10, padding_idx=0)
      (f_21): Embedding(35, 10, padding_idx=0)
      (f_22): Embedding(25, 10, padding_idx=0)
      (f_17): Embedding(42, 10, padding_idx=0)
      (f_76): Embedding(9, 10, padding_idx=0)
      (f_78): Embedding(11, 10, padding_idx=0)
      (f_41): Embedding(3, 10, padding_idx=0)
      (f_35): Embedding(3, 10, padding_idx=0)
      (f_9): Embedding(8, 10, padding_idx=0)
      (f_11): Embedding(25, 10, padding_idx=0)
      (f_55): Embedding(306, 10, padding_idx=0)
      (f_47): Embedding(21, 10, padding_idx=0)
      (f_12): Embedding(25, 10, padding_idx=0)
      (f_73): Embedding(9, 10, padding_idx=0)
      (f_8): Embedding(7, 10, padding_idx=0)
      (f_10): Embedding(4, 10, padding_idx=0)
      (f_63): Embedding(298, 10, padding_idx=0)
      (f_53): Embedding(85, 10, padding_idx=0)
      (f_1): DenseEmbedding(
        embedding_dim=10, bias=False, batch_norm=True
        (batch_norm_layer): BatchNorm1d(1, eps=1e-05, momentum=0.1, affine=True, track_running_stats=True)
        (weight): Linear(in_features=1, out_features=10, bias=False)
      )
      (f_65): DenseEmbedding(
        embedding_dim=10, bias=False, batch_norm=True
        (batch_norm_layer): BatchNorm1d(1, eps=1e-05, momentum=0.1, affine=True, track_running_stats=True)
        (weight): Linear(in_features=1, out_features=10, bias=False)
      )
      (f_15): Embedding(4277, 10, padding_idx=0)
      (f_6): Embedding(4455, 10, padding_idx=0)
      (f_14): Embedding(19, 10, padding_idx=0)
      (f_72): Embedding(12, 10, padding_idx=0)
      (f_39): Embedding(3, 10, padding_idx=0)
      (f_58): DenseEmbedding(
        embedding_dim=10, bias=False, batch_norm=True
        (batch_norm_layer): BatchNorm1d(1, eps=1e-05, momentum=0.1, affine=True, track_running_stats=True)
        (weight): Linear(in_features=1, out_features=10, bias=False)
      )
      (f_20): Embedding(56, 10, padding_idx=0)
      (f_77): Embedding(5, 10, padding_idx=0)
      (f_25): Embedding(4, 10, padding_idx=0)
      (f_51): Embedding(1725, 10, padding_idx=0)
      (f_54): Embedding(172, 10, padding_idx=0)
      (f_33): Embedding(3, 10, padding_idx=0)
    )
  )
  (mlp): MLPModule(
    (model): Sequential(
      (0): Dropout(p=0.3, inplace=False)
      (1): Linear(in_features=750, out_features=256, bias=True)
      (2): BatchNorm1d(256, eps=1e-05, momentum=0.1, affine=True, track_running_stats=True)
      (3): ReLU()
      (4): Dropout(p=0.3, inplace=False)
      (5): Linear(in_features=256, out_features=256, bias=True)
      (6): BatchNorm1d(256, eps=1e-05, momentum=0.1, affine=True, track_running_stats=True)
      (7): ReLU()
      (8): Dropout(p=0.3, inplace=False)
      (9): Linear(in_features=256, out_features=256, bias=True)
      (10): BatchNorm1d(256, eps=1e-05, momentum=0.1, affine=True, track_running_stats=True)
      (11): ReLU()
      (12): Dropout(p=0.3, inplace=False)
      (13): Linear(in_features=256, out_features=1, bias=True)
    )
  )
)
[2023-06-17 21:53:05] INFO GPU id [3] are selected.
[2023-06-17 21:54:11] INFO Training: Epoch=  0 [logloss=0.4228 accuracy=0.8148 f1=0.0511 precision=0.7599 recall=0.0265 auc=0.8287 train_loss_0=0.3166]
[2023-06-17 21:54:11] INFO Train time: 64.85551s. Valid time: 0.11053s. GPU RAM: 0.08/10.76 GB
[2023-06-17 21:54:11] INFO logloss improved. Best value: 0.4228
…
