…
	early_stop_mode=min
	early_stop_patience=10
	epochs=1000
	gpu=[4]
	grad_clip_norm=None
	init_method=xavier_normal
	item_batch_size=1024
	learner=adam
	learning_rate=0.001
	num_threads=10
	sampling_method=none
	sampler=uniform
	negative_count=0
	excluding_hist=False
	scheduler=None
	seed=2022
	weight_decay=0.0001
	tensorboard_path=None
[2023-06-17 20:51:08] INFO save_dir:./saved/
[2023-06-17 20:51:08] INFO LorentzFM(
  (loss_fn): BCEWithLogitLoss()
  (lfm): Sequential(
    (embeddings): Embeddings(
      num_features=75, embed_dim=10, reduction=mean
      (embeddings): ModuleDict(
        (f_41): Embedding(3, 10, padding_idx=0)
        (f_8): Embedding(7, 10, padding_idx=0)
        (f_19): Embedding(20, 10, padding_idx=0)
        (f_59): DenseEmbedding(
          embedding_dim=10, bias=False, batch_norm=True
          (batch_norm_layer): BatchNorm1d(1, eps=1e-05, momentum=0.1, affine=True, track_running_stats=True)
          (weight): Linear(in_features=1, out_features=10, bias=False)
        )
        (f_63): Embedding(408, 10, padding_idx=0)
        (f_25): Embedding(4, 10, padding_idx=0)
        (f_77): Embedding(5, 10, padding_idx=0)
        (f_73): Embedding(9, 10, padding_idx=0)
        (f_39): Embedding(3, 10, padding_idx=0)
        (f_70): DenseEmbedding(
          embedding_dim=10, bias=False, batch_norm=True
          (batch_norm_layer): BatchNorm1d(1, eps=1e-05, momentum=0.1, affine=True, track_running_stats=True)
          (weight): Linear(in_features=1, out_features=10, bias=False)
        )
        (f_55): Embedding(390, 10, padding_idx=0)
        (f_49): Embedding(21, 10, padding_idx=0)
        (f_66): DenseEmbedding(
          embedding_dim=10, bias=False, batch_norm=True
          (batch_norm_layer): BatchNorm1d(1, eps=1e-05, momentum=0.1, affine=True, track_running_stats=True)
          (weight): Linear(in_features=1, out_features=10, bias=False)
        )
        (f_17): Embedding(50, 10, padding_idx=0)
        (f_61): Embedding(826, 10, padding_idx=0)
        (f_11): Embedding(25, 10, padding_idx=0)
        (f_21): Embedding(36, 10, padding_idx=0)
        (f_45): Embedding(24, 10, padding_idx=0)
        (f_50): Embedding(35, 10, padding_idx=0)
        (f_5): Embedding(7, 10, padding_idx=0)
        (f_67): DenseEmbedding(
          embedding_dim=10, bias=False, batch_norm=True
          (batch_norm_layer): BatchNorm1d(1, eps=1e-05, momentum=0.1, affine=True, track_running_stats=True)
          (weight): Linear(in_features=1, out_features=10, bias=False)
        )
        (f_57): Embedding(517, 10, padding_idx=0)
        (f_6): Embedding(5235, 10, padding_idx=0)
        (f_54): Embedding(213, 10, padding_idx=0)
        (f_53): Embedding(103, 10, padding_idx=0)
        (f_51): Embedding(1829, 10, padding_idx=0)
        (f_20): Embedding(58, 10, padding_idx=0)
        (f_74): Embedding(5, 10, padding_idx=0)
        (f_37): Embedding(3, 10, padding_idx=0)
        (f_14): Embedding(20, 10, padding_idx=0)
        (f_44): Embedding(22, 10, padding_idx=0)
        (f_46): Embedding(12, 10, padding_idx=0)
        (f_31): Embedding(3, 10, padding_idx=0)
        (f_42): Embedding(8883, 10, padding_idx=0)
        (f_10): Embedding(4, 10, padding_idx=0)
        (f_22): Embedding(27, 10, padding_idx=0)
        (f_43): DenseEmbedding(
          embedding_dim=10, bias=False, batch_norm=True
          (batch_norm_layer): BatchNorm1d(1, eps=1e-05, momentum=0.1, affine=True, track_running_stats=True)
          (weight): Linear(in_features=1, out_features=10, bias=False)
        )
        (f_58): DenseEmbedding(
          embedding_dim=10, bias=False, batch_norm=True
          (batch_norm_layer): BatchNorm1d(1, eps=1e-05, momentum=0.1, affine=True, track_running_stats=True)
          (weight): Linear(in_features=1, out_features=10, bias=False)
        )
        (f_38): Embedding(3, 10, padding_idx=0)
        (f_1): DenseEmbedding(
          embedding_dim=10, bias=False, batch_norm=True
          (batch_norm_layer): BatchNorm1d(1, eps=1e-05, momentum=0.1, affine=True, track_running_stats=True)
          (weight): Linear(in_features=1, out_features=10, bias=False)
        )
        (f_24): Embedding(5, 10, padding_idx=0)
        (f_26): Embedding(3, 10, padding_idx=0)
        (f_3): Embedding(6, 10, padding_idx=0)
        (f_30): Embedding(3, 10, padding_idx=0)
        (f_68): DenseEmbedding(
          embedding_dim=10, bias=False, batch_norm=True
          (batch_norm_layer): BatchNorm1d(1, eps=1e-05, momentum=0.1, affine=True, track_running_stats=True)
          (weight): Linear(in_features=1, out_features=10, bias=False)
        )
        (f_12): Embedding(27, 10, padding_idx=0)
        (f_35): Embedding(3, 10, padding_idx=0)
        (f_79): Embedding(8, 10, padding_idx=0)
        (f_9): Embedding(8, 10, padding_idx=0)
        (f_32): Embedding(5, 10, padding_idx=0)
        (f_60): Embedding(403, 10, padding_idx=0)
        (f_13): Embedding(332, 10, padding_idx=0)
        (f_72): Embedding(12, 10, padding_idx=0)
        (f_76): Embedding(9, 10, padding_idx=0)
        (f_40): Embedding(3, 10, padding_idx=0)
        (f_71): Embedding(5, 10, padding_idx=0)
        (f_16): Embedding(13, 10, padding_idx=0)
        (f_4): Embedding(639, 10, padding_idx=0)
        (f_15): Embedding(5855, 10, padding_idx=0)
        (f_18): Embedding(925, 10, padding_idx=0)
        (f_56): Embedding(221, 10, padding_idx=0)
        (f_47): Embedding(28, 10, padding_idx=0)
        (f_65): DenseEmbedding(
          embedding_dim=10, bias=False, batch_norm=True
          (batch_norm_layer): BatchNorm1d(1, eps=1e-05, momentum=0.1, affine=True, track_running_stats=True)
          (weight): Linear(in_features=1, out_features=10, bias=False)
        )
        (f_2): Embedding(140, 10, padding_idx=0)
        (f_64): DenseEmbedding(
          embedding_dim=10, bias=False, batch_norm=True
          (batch_norm_layer): BatchNorm1d(1, eps=1e-05, momentum=0.1, affine=True, track_running_stats=True)
          (weight): Linear(in_features=1, out_features=10, bias=False)
        )
        (f_34): Embedding(3, 10, padding_idx=0)
        (f_33): Embedding(3, 10, padding_idx=0)
        (f_36): Embedding(3, 10, padding_idx=0)
        (f_52): Embedding(172, 10, padding_idx=0)
        (f_69): DenseEmbedding(
          embedding_dim=10, bias=False, batch_norm=True
          (batch_norm_layer): BatchNorm1d(1, eps=1e-05, momentum=0.1, affine=True, track_running_stats=True)
          (weight): Linear(in_features=1, out_features=10, bias=False)
        )
        (f_78): Embedding(14, 10, padding_idx=0)
        (f_48): Embedding(28, 10, padding_idx=0)
        (f_75): Embedding(32, 10, padding_idx=0)
        (f_62): Embedding(1397, 10, padding_idx=0)
        (f_23): Embedding(5, 10, padding_idx=0)
      )
    )
    (triangle_pooling_layer): TrianglePoolingLayer(
      (inner_product): InnerProductLayer()
    )
  )
)
[2023-06-17 20:51:08] INFO GPU id [4] are selected.
[2023-06-17 20:54:21] INFO Training: Epoch=  0 [logloss=0.5797 accuracy=0.7407 f1=0.5027 precision=0.3924 recall=0.6997 auc=0.7930 train_loss_0=1.0495]
[2023-06-17 20:54:21] INFO Train time: 191.51958s. Valid time: 1.24066s. GPU RAM: 1.59/10.76 GB
…
