…
	early_stop_mode=min
	early_stop_patience=10
	early_stop_delta=0.02
	epochs=1000
	gpu=[3]
	grad_clip_norm=None
	init_method=xavier_normal
	item_batch_size=1024
	learner=adam
	learning_rate=0.001
	num_threads=10
	sampling_method=none
	sampler=uniform
	negative_count=0
	excluding_hist=False
	scheduler=None
	seed=2022
	weight_decay=1e-05
	tensorboard_path=None
	weights=[1.0, 20.0]
[2023-06-21 22:32:28] INFO save_dir:./saved/
[2023-06-21 22:32:28] INFO PLEMLPSEnet(
  (loss_fn): BCEWithLogitLoss()
  (embedding): Embeddings(
    num_features=76, embed_dim=40, reduction=mean
    (embeddings): ModuleDict(
      (f_32): Embedding(5, 40, padding_idx=0)
      (f_21): Embedding(36, 40, padding_idx=0)
      (f_23): Embedding(5, 40, padding_idx=0)
      (f_3): Embedding(6, 40, padding_idx=0)
      (f_51): Embedding(1829, 40, padding_idx=0)
      (f_76): Embedding(9, 40, padding_idx=0)
      (f_40): Embedding(3, 40, padding_idx=0)
      (f_13): Embedding(332, 40, padding_idx=0)
      (f_61): Embedding(826, 40, padding_idx=0)
      (f_36): Embedding(3, 40, padding_idx=0)
      (f_9): Embedding(8, 40, padding_idx=0)
      (f_50): Embedding(35, 40, padding_idx=0)
      (f_48): Embedding(28, 40, padding_idx=0)
      (f_73): Embedding(9, 40, padding_idx=0)
      (f_15): Embedding(5855, 40, padding_idx=0)
      (f_34): Embedding(3, 40, padding_idx=0)
      (f_20): Embedding(58, 40, padding_idx=0)
      (f_59): DenseEmbedding(
        embedding_dim=40, bias=False, batch_norm=True
        (batch_norm_layer): BatchNorm1d(1, eps=1e-05, momentum=0.1, affine=True, track_running_stats=True)
        (weight): Linear(in_features=1, out_features=40, bias=False)
      )
      (f_4): Embedding(639, 40, padding_idx=0)
      (f_17): Embedding(50, 40, padding_idx=0)
      (f_30): Embedding(3, 40, padding_idx=0)
      (f_33): Embedding(3, 40, padding_idx=0)
      (f_49): Embedding(21, 40, padding_idx=0)
      (f_6): Embedding(5235, 40, padding_idx=0)
      (f_78): Embedding(14, 40, padding_idx=0)
      (f_8): Embedding(7, 40, padding_idx=0)
      (f_74): Embedding(5, 40, padding_idx=0)
      (f_5): Embedding(7, 40, padding_idx=0)
      (f_47): Embedding(28, 40, padding_idx=0)
      (f_39): Embedding(3, 40, padding_idx=0)
      (f_42): Embedding(8883, 40, padding_idx=0)
      (f_18): Embedding(925, 40, padding_idx=0)
      (f_60): Embedding(403, 40, padding_idx=0)
      (f_79): Embedding(8, 40, padding_idx=0)
      (f_67): DenseEmbedding(
        embedding_dim=40, bias=False, batch_norm=True
        (batch_norm_layer): BatchNorm1d(1, eps=1e-05, momentum=0.1, affine=True, track_running_stats=True)
        (weight): Linear(in_features=1, out_features=40, bias=False)
      )
      (f_55): Embedding(390, 40, padding_idx=0)
      (f_46): Embedding(12, 40, padding_idx=0)
      (weekday): Embedding(8, 40, padding_idx=0)
      (f_62): Embedding(1397, 40, padding_idx=0)
      (f_35): Embedding(3, 40, padding_idx=0)
      (f_52): Embedding(172, 40, padding_idx=0)
      (f_38): Embedding(3, 40, padding_idx=0)
      (f_53): Embedding(103, 40, padding_idx=0)
      (f_12): Embedding(27, 40, padding_idx=0)
      (f_69): DenseEmbedding(
        embedding_dim=40, bias=False, batch_norm=True
        (batch_norm_layer): BatchNorm1d(1, eps=1e-05, momentum=0.1, affine=True, track_running_stats=True)
        (weight): Linear(in_features=1, out_features=40, bias=False)
      )
      (f_2): Embedding(140, 40, padding_idx=0)
      (f_31): Embedding(3, 40, padding_idx=0)
      (f_72): Embedding(12, 40, padding_idx=0)
      (f_64): DenseEmbedding(
        embedding_dim=40, bias=False, batch_norm=True
        (batch_norm_layer): BatchNorm1d(1, eps=1e-05, momentum=0.1, affine=True, track_running_stats=True)
        (weight): Linear(in_features=1, out_features=40, bias=False)
      )
      (f_68): DenseEmbedding(
        embedding_dim=40, bias=False, batch_norm=True
        (batch_norm_layer): BatchNorm1d(1, eps=1e-05, momentum=0.1, affine=True, track_running_stats=True)
        (weight): Linear(in_features=1, out_features=40, bias=False)
      )
      (f_43): DenseEmbedding(
        embedding_dim=40, bias=False, batch_norm=True
        (batch_norm_layer): BatchNorm1d(1, eps=1e-05, momentum=0.1, affine=True, track_running_stats=True)
        (weight): Linear(in_features=1, out_features=40, bias=False)
      )
      (f_24): Embedding(5, 40, padding_idx=0)
      (f_26): Embedding(3, 40, padding_idx=0)
      (f_66): DenseEmbedding(
        embedding_dim=40, bias=False, batch_norm=True
        (batch_norm_layer): BatchNorm1d(1, eps=1e-05, momentum=0.1, affine=True, track_running_stats=True)
        (weight): Linear(in_features=1, out_features=40, bias=False)
      )
      (f_10): Embedding(4, 40, padding_idx=0)
      (f_1): DenseEmbedding(
        embedding_dim=40, bias=False, batch_norm=True
        (batch_norm_layer): BatchNorm1d(1, eps=1e-05, momentum=0.1, affine=True, track_running_stats=True)
        (weight): Linear(in_features=1, out_features=40, bias=False)
      )
      (f_14): Embedding(20, 40, padding_idx=0)
      (f_22): Embedding(27, 40, padding_idx=0)
      (f_63): Embedding(408, 40, padding_idx=0)
      (f_58): DenseEmbedding(
        embedding_dim=40, bias=False, batch_norm=True
        (batch_norm_layer): BatchNorm1d(1, eps=1e-05, momentum=0.1, affine=True, track_running_stats=True)
        (weight): Linear(in_features=1, out_features=40, bias=False)
      )
      (f_70): DenseEmbedding(
        embedding_dim=40, bias=False, batch_norm=True
        (batch_norm_layer): BatchNorm1d(1, eps=1e-05, momentum=0.1, affine=True, track_running_stats=True)
        (weight): Linear(in_features=1, out_features=40, bias=False)
      )
      (f_56): Embedding(221, 40, padding_idx=0)
      (f_45): Embedding(24, 40, padding_idx=0)
      (f_54): Embedding(213, 40, padding_idx=0)
      (f_19): Embedding(20, 40, padding_idx=0)
      (f_44): Embedding(22, 40, padding_idx=0)
      (f_41): Embedding(3, 40, padding_idx=0)
      (f_65): DenseEmbedding(
        embedding_dim=40, bias=False, batch_norm=True
        (batch_norm_layer): BatchNorm1d(1, eps=1e-05, momentum=0.1, affine=True, track_running_stats=True)
        (weight): Linear(in_features=1, out_features=40, bias=False)
      )
      (f_75): Embedding(32, 40, padding_idx=0)
      (f_71): Embedding(5, 40, padding_idx=0)
      (f_77): Embedding(5, 40, padding_idx=0)
      (f_57): Embedding(517, 40, padding_idx=0)
      (f_16): Embedding(13, 40, padding_idx=0)
      (f_11): Embedding(25, 40, padding_idx=0)
      (f_37): Embedding(3, 40, padding_idx=0)
      (f_25): Embedding(4, 40, padding_idx=0)
    )
  )
  (extraction_layers): Sequential(
    (0): ExtractionLayer(
      specific_experts_per_task=4, num_task=2, num_shared_experts=3
      (specific_experts): ModuleList(
        (0-1): 2 x ModuleList(
          (0-3): 4 x MLPModule(
            (model): Sequential(
              (0): Dropout(p=0.5, inplace=False)
              (1): Linear(in_features=3040, out_features=256, bias=True)
              (2): ReLU()
              (3): Dropout(p=0.5, inplace=False)
              (4): Linear(in_features=256, out_features=256, bias=True)
              (5): ReLU()
            )
          )
        )
      )
      (shared_experts): ModuleList(
        (0-2): 3 x MLPModule(
          (model): Sequential(
            (0): Dropout(p=0.5, inplace=False)
            (1): Linear(in_features=3040, out_features=256, bias=True)
            (2): ReLU()
            (3): Dropout(p=0.5, inplace=False)
            (4): Linear(in_features=256, out_features=256, bias=True)
            (5): ReLU()
          )
        )
      )
      (gates): ModuleList(
        (0-1): 2 x MLPModule(
          (model): Sequential(
            (0): Dropout(p=0.1, inplace=False)
            (1): Linear(in_features=3040, out_features=128, bias=True)
            (2): ReLU()
            (3): Dropout(p=0.1, inplace=False)
            (4): Linear(in_features=128, out_features=7, bias=True)
            (5): ReLU()
            (6): Softmax(dim=-1)
          )
        )
      )
      (shared_gates): MLPModule(
        (model): Sequential(
          (0): Dropout(p=0.1, inplace=False)
          (1): Linear(in_features=3040, out_features=128, bias=True)
          (2): ReLU()
          (3): Dropout(p=0.1, inplace=False)
          (4): Linear(in_features=128, out_features=11, bias=True)
          (5): ReLU()
          (6): Softmax(dim=-1)
        )
      )
    )
    (1): ExtractionLayer(
      specific_experts_per_task=4, num_task=2, num_shared_experts=3
      (specific_experts): ModuleList(
        (0-1): 2 x ModuleList(
          (0-3): 4 x MLPModule(
            (model): Sequential(
              (0): Dropout(p=0.5, inplace=False)
              (1): Linear(in_features=256, out_features=256, bias=True)
              (2): ReLU()
              (3): Dropout(p=0.5, inplace=False)
              (4): Linear(in_features=256, out_features=256, bias=True)
              (5): ReLU()
            )
          )
        )
      )
      (shared_experts): ModuleList(
        (0-2): 3 x MLPModule(
          (model): Sequential(
            (0): Dropout(p=0.5, inplace=False)
            (1): Linear(in_features=256, out_features=256, bias=True)
            (2): ReLU()
            (3): Dropout(p=0.5, inplace=False)
            (4): Linear(in_features=256, out_features=256, bias=True)
            (5): ReLU()
          )
        )
      )
      (gates): ModuleList(
        (0-1): 2 x MLPModule(
          (model): Sequential(
            (0): Dropout(p=0.1, inplace=False)
            (1): Linear(in_features=256, out_features=128, bias=True)
            (2): ReLU()
            (3): Dropout(p=0.1, inplace=False)
            (4): Linear(in_features=128, out_features=7, bias=True)
            (5): ReLU()
            (6): Softmax(dim=-1)
          )
        )
      )
    )
  )
  (towers): ModuleDict(
    (is_clicked): MLPModule(
      (model): Sequential(
        (0): Dropout(p=0.1, inplace=False)
        (1): Linear(in_features=256, out_features=128, bias=True)
        (2): ReLU()
        (3): Dropout(p=0.1, inplace=False)
        (4): Linear(in_features=128, out_features=1, bias=True)
      )
    )
    (is_installed): MLPModule(
      (model): Sequential(
        (0): Dropout(p=0.1, inplace=False)
        (1): Linear(in_features=256, out_features=128, bias=True)
        (2): ReLU()
        (3): Dropout(p=0.1, inplace=False)
        (4): Linear(in_features=128, out_features=1, bias=True)
      )
    )
  )
  (senet): SqueezeExcitation(
    pool=avg, reduced_size=25, activation=['relu', 'relu']
    (excitation): Sequential(
      (0): Linear(in_features=76, out_features=25, bias=False)
      (1): ReLU()
      (2): Linear(in_features=25, out_features=76, bias=False)
      (3): ReLU()
    )
  )
  (mlp): MLPModule(
    (model): Sequential(
      (0): Dropout(p=0.3, inplace=False)
      (1): Linear(in_features=3040, out_features=128, bias=True)
      (2): BatchNorm1d(128, eps=1e-05, momentum=0.1, affine=True, track_running_stats=True)
      (3): ReLU()
      (4): Dropout(p=0.3, inplace=False)
      (5): Linear(in_features=128, out_features=128, bias=True)
      (6): BatchNorm1d(128, eps=1e-05, momentum=0.1, affine=True, track_running_stats=True)
      (7): ReLU()
      (8): Dropout(p=0.3, inplace=False)
      (9): Linear(in_features=128, out_features=1, bias=True)
    )
  )
)
[2023-06-21 22:32:28] INFO GPU id [3] are selected.
[2023-06-21 22:33:46] INFO Training: Epoch=  0 [train_loss_0=0.2807 is_clicked logloss=0.6931 accuracy=0.6375 f1=0.0000 precision=0.0000 recall=0.0000 auc=0.5000 train_loss_0=0.6937 is_installed logloss=0.3785 accuracy=0.8233 f1=0.1782 precision=0.6931 recall=0.1023 auc=0.8386 train_loss_0=0.2807]
…
