…
	ann=None
	batch_size=512
	early_stop_mode=min
	early_stop_patience=10
	epochs=1000
	gpu=[8]
	grad_clip_norm=None
	init_method=xavier_normal
	item_batch_size=1024
	learner=adam
	learning_rate=0.001
	num_threads=10
	sampling_method=none
	sampler=uniform
	negative_count=0
	excluding_hist=False
	scheduler=None
	seed=2022
	weight_decay=1e-05
	tensorboard_path=None
	weights=None
[2023-06-17 21:04:48] INFO save_dir:./saved/
[2023-06-17 21:04:48] INFO PLE(
  (loss_fn): BCEWithLogitLoss()
  (embedding): Embeddings(
    num_features=75, embed_dim=64, reduction=mean
    (embeddings): ModuleDict(
      (f_16): Embedding(13, 64, padding_idx=0)
      (f_15): Embedding(5855, 64, padding_idx=0)
      (f_54): Embedding(213, 64, padding_idx=0)
      (f_66): DenseEmbedding(
        embedding_dim=64, bias=False, batch_norm=True
        (batch_norm_layer): BatchNorm1d(1, eps=1e-05, momentum=0.1, affine=True, track_running_stats=True)
        (weight): Linear(in_features=1, out_features=64, bias=False)
      )
      (f_12): Embedding(27, 64, padding_idx=0)
      (f_60): Embedding(403, 64, padding_idx=0)
      (f_77): Embedding(5, 64, padding_idx=0)
      (f_56): Embedding(221, 64, padding_idx=0)
      (f_61): Embedding(826, 64, padding_idx=0)
      (f_41): Embedding(3, 64, padding_idx=0)
      (f_35): Embedding(3, 64, padding_idx=0)
      (f_38): Embedding(3, 64, padding_idx=0)
      (f_30): Embedding(3, 64, padding_idx=0)
      (f_23): Embedding(5, 64, padding_idx=0)
      (f_65): DenseEmbedding(
        embedding_dim=64, bias=False, batch_norm=True
        (batch_norm_layer): BatchNorm1d(1, eps=1e-05, momentum=0.1, affine=True, track_running_stats=True)
        (weight): Linear(in_features=1, out_features=64, bias=False)
      )
      (f_74): Embedding(5, 64, padding_idx=0)
      (f_6): Embedding(5235, 64, padding_idx=0)
      (f_18): Embedding(925, 64, padding_idx=0)
      (f_33): Embedding(3, 64, padding_idx=0)
      (f_58): DenseEmbedding(
        embedding_dim=64, bias=False, batch_norm=True
        (batch_norm_layer): BatchNorm1d(1, eps=1e-05, momentum=0.1, affine=True, track_running_stats=True)
        (weight): Linear(in_features=1, out_features=64, bias=False)
      )
      (f_21): Embedding(36, 64, padding_idx=0)
      (f_49): Embedding(21, 64, padding_idx=0)
      (f_31): Embedding(3, 64, padding_idx=0)
      (f_53): Embedding(103, 64, padding_idx=0)
      (f_5): Embedding(7, 64, padding_idx=0)
      (f_17): Embedding(50, 64, padding_idx=0)
      (f_26): Embedding(3, 64, padding_idx=0)
      (f_1): DenseEmbedding(
        embedding_dim=64, bias=False, batch_norm=True
        (batch_norm_layer): BatchNorm1d(1, eps=1e-05, momentum=0.1, affine=True, track_running_stats=True)
        (weight): Linear(in_features=1, out_features=64, bias=False)
      )
      (f_47): Embedding(28, 64, padding_idx=0)
      (f_8): Embedding(7, 64, padding_idx=0)
      (f_45): Embedding(24, 64, padding_idx=0)
      (f_69): DenseEmbedding(
        embedding_dim=64, bias=False, batch_norm=True
        (batch_norm_layer): BatchNorm1d(1, eps=1e-05, momentum=0.1, affine=True, track_running_stats=True)
        (weight): Linear(in_features=1, out_features=64, bias=False)
      )
      (f_37): Embedding(3, 64, padding_idx=0)
      (f_70): DenseEmbedding(
        embedding_dim=64, bias=False, batch_norm=True
        (batch_norm_layer): BatchNorm1d(1, eps=1e-05, momentum=0.1, affine=True, track_running_stats=True)
        (weight): Linear(in_features=1, out_features=64, bias=False)
      )
      (f_52): Embedding(172, 64, padding_idx=0)
      (f_76): Embedding(9, 64, padding_idx=0)
      (f_55): Embedding(390, 64, padding_idx=0)
      (f_44): Embedding(22, 64, padding_idx=0)
      (f_71): Embedding(5, 64, padding_idx=0)
      (f_14): Embedding(20, 64, padding_idx=0)
      (f_63): Embedding(408, 64, padding_idx=0)
      (f_46): Embedding(12, 64, padding_idx=0)
      (f_42): Embedding(8883, 64, padding_idx=0)
      (f_22): Embedding(27, 64, padding_idx=0)
      (f_24): Embedding(5, 64, padding_idx=0)
      (f_3): Embedding(6, 64, padding_idx=0)
      (f_36): Embedding(3, 64, padding_idx=0)
      (f_32): Embedding(5, 64, padding_idx=0)
      (f_51): Embedding(1829, 64, padding_idx=0)
      (f_9): Embedding(8, 64, padding_idx=0)
      (f_59): DenseEmbedding(
        embedding_dim=64, bias=False, batch_norm=True
        (batch_norm_layer): BatchNorm1d(1, eps=1e-05, momentum=0.1, affine=True, track_running_stats=True)
        (weight): Linear(in_features=1, out_features=64, bias=False)
      )
      (f_34): Embedding(3, 64, padding_idx=0)
      (f_11): Embedding(25, 64, padding_idx=0)
      (f_10): Embedding(4, 64, padding_idx=0)
      (f_68): DenseEmbedding(
        embedding_dim=64, bias=False, batch_norm=True
        (batch_norm_layer): BatchNorm1d(1, eps=1e-05, momentum=0.1, affine=True, track_running_stats=True)
        (weight): Linear(in_features=1, out_features=64, bias=False)
      )
      (f_39): Embedding(3, 64, padding_idx=0)
      (f_64): DenseEmbedding(
        embedding_dim=64, bias=False, batch_norm=True
        (batch_norm_layer): BatchNorm1d(1, eps=1e-05, momentum=0.1, affine=True, track_running_stats=True)
        (weight): Linear(in_features=1, out_features=64, bias=False)
      )
      (f_67): DenseEmbedding(
        embedding_dim=64, bias=False, batch_norm=True
        (batch_norm_layer): BatchNorm1d(1, eps=1e-05, momentum=0.1, affine=True, track_running_stats=True)
        (weight): Linear(in_features=1, out_features=64, bias=False)
      )
      (f_75): Embedding(32, 64, padding_idx=0)
      (f_19): Embedding(20, 64, padding_idx=0)
      (f_73): Embedding(9, 64, padding_idx=0)
      (f_20): Embedding(58, 64, padding_idx=0)
      (f_25): Embedding(4, 64, padding_idx=0)
      (f_72): Embedding(12, 64, padding_idx=0)
      (f_78): Embedding(14, 64, padding_idx=0)
      (f_48): Embedding(28, 64, padding_idx=0)
      (f_2): Embedding(140, 64, padding_idx=0)
      (f_57): Embedding(517, 64, padding_idx=0)
      (f_43): DenseEmbedding(
        embedding_dim=64, bias=False, batch_norm=True
        (batch_norm_layer): BatchNorm1d(1, eps=1e-05, momentum=0.1, affine=True, track_running_stats=True)
        (weight): Linear(in_features=1, out_features=64, bias=False)
      )
      (f_4): Embedding(639, 64, padding_idx=0)
      (f_62): Embedding(1397, 64, padding_idx=0)
      (f_79): Embedding(8, 64, padding_idx=0)
      (f_50): Embedding(35, 64, padding_idx=0)
      (f_13): Embedding(332, 64, padding_idx=0)
      (f_40): Embedding(3, 64, padding_idx=0)
    )
  )
  (extraction_layers): Sequential(
    (0): ExtractionLayer(
      specific_experts_per_task=4, num_task=2, num_shared_experts=3
      (specific_experts): ModuleList(
        (0-1): 2 x ModuleList(
          (0-3): 4 x MLPModule(
            (model): Sequential(
              (0): Dropout(p=0.1, inplace=False)
              (1): Linear(in_features=4800, out_features=128, bias=True)
              (2): ReLU()
              (3): Dropout(p=0.1, inplace=False)
              (4): Linear(in_features=128, out_features=128, bias=True)
              (5): ReLU()
            )
          )
        )
      )
      (shared_experts): ModuleList(
        (0-2): 3 x MLPModule(
          (model): Sequential(
            (0): Dropout(p=0.1, inplace=False)
            (1): Linear(in_features=4800, out_features=128, bias=True)
            (2): ReLU()
            (3): Dropout(p=0.1, inplace=False)
            (4): Linear(in_features=128, out_features=128, bias=True)
            (5): ReLU()
          )
        )
      )
      (gates): ModuleList(
        (0-1): 2 x MLPModule(
          (model): Sequential(
            (0): Dropout(p=0.1, inplace=False)
            (1): Linear(in_features=4800, out_features=128, bias=True)
            (2): ReLU()
            (3): Dropout(p=0.1, inplace=False)
            (4): Linear(in_features=128, out_features=7, bias=True)
            (5): ReLU()
            (6): Softmax(dim=-1)
          )
        )
      )
      (shared_gates): MLPModule(
        (model): Sequential(
          (0): Dropout(p=0.1, inplace=False)
          (1): Linear(in_features=4800, out_features=128, bias=True)
          (2): ReLU()
          (3): Dropout(p=0.1, inplace=False)
          (4): Linear(in_features=128, out_features=11, bias=True)
          (5): ReLU()
          (6): Softmax(dim=-1)
        )
      )
    )
    (1): ExtractionLayer(
      specific_experts_per_task=4, num_task=2, num_shared_experts=3
      (specific_experts): ModuleList(
        (0-1): 2 x ModuleList(
          (0-3): 4 x MLPModule(
            (model): Sequential(
              (0): Dropout(p=0.1, inplace=False)
              (1): Linear(in_features=128, out_features=128, bias=True)
              (2): ReLU()
              (3): Dropout(p=0.1, inplace=False)
              (4): Linear(in_features=128, out_features=128, bias=True)
              (5): ReLU()
            )
          )
        )
      )
      (shared_experts): ModuleList(
        (0-2): 3 x MLPModule(
          (model): Sequential(
            (0): Dropout(p=0.1, inplace=False)
            (1): Linear(in_features=128, out_features=128, bias=True)
            (2): ReLU()
            (3): Dropout(p=0.1, inplace=False)
            (4): Linear(in_features=128, out_features=128, bias=True)
            (5): ReLU()
          )
        )
      )
      (gates): ModuleList(
        (0-1): 2 x MLPModule(
          (model): Sequential(
            (0): Dropout(p=0.1, inplace=False)
            (1): Linear(in_features=128, out_features=128, bias=True)
            (2): ReLU()
            (3): Dropout(p=0.1, inplace=False)
            (4): Linear(in_features=128, out_features=7, bias=True)
            (5): ReLU()
            (6): Softmax(dim=-1)
          )
        )
      )
    )
  )
  (towers): ModuleDict(
    (is_clicked): MLPModule(
      (model): Sequential(
        (0): Dropout(p=0.1, inplace=False)
        (1): Linear(in_features=128, out_features=128, bias=True)
        (2): ReLU()
        (3): Dropout(p=0.1, inplace=False)
        (4): Linear(in_features=128, out_features=1, bias=True)
      )
    )
    (is_installed): MLPModule(
      (model): Sequential(
        (0): Dropout(p=0.1, inplace=False)
        (1): Linear(in_features=128, out_features=128, bias=True)
        (2): ReLU()
        (3): Dropout(p=0.1, inplace=False)
        (4): Linear(in_features=128, out_features=1, bias=True)
      )
    )
  )
)
[2023-06-17 21:04:48] INFO GPU id [8] are selected.
[2023-06-17 21:09:05] INFO Training: Epoch=  0 [train_loss_0=0.2750 is_clicked logloss=0.4927 accuracy=0.7891 f1=0.6490 precision=0.8178 recall=0.5380 auc=0.7933 train_loss_0=0.2812 is_installed logloss=0.3986 accuracy=0.8213 f1=0.2934 precision=0.5667 recall=0.1980 auc=0.7947 train_loss_0=0.2688]
…
