…
	grad_clip_norm=None
	init_method=xavier_normal
	item_batch_size=1024
	learner=adam
	learning_rate=0.001
	num_threads=10
	sampling_method=none
	sampler=uniform
	negative_count=0
	excluding_hist=False
	scheduler=None
	seed=2022
	weight_decay=1e-05
	tensorboard_path=None
	weights=[1.0, 10.0]
[2023-06-19 11:08:32] INFO save_dir:./saved/
[2023-06-19 11:08:32] INFO PLE(
  (loss_fn): BCEWithLogitLoss()
  (embedding): Embeddings(
    num_features=75, embed_dim=64, reduction=mean
    (embeddings): ModuleDict(
      (f_69): DenseEmbedding(
        embedding_dim=64, bias=False, batch_norm=True
        (batch_norm_layer): BatchNorm1d(1, eps=1e-05, momentum=0.1, affine=True, track_running_stats=True)
        (weight): Linear(in_features=1, out_features=64, bias=False)
      )
      (f_65): DenseEmbedding(
        embedding_dim=64, bias=False, batch_norm=True
        (batch_norm_layer): BatchNorm1d(1, eps=1e-05, momentum=0.1, affine=True, track_running_stats=True)
        (weight): Linear(in_features=1, out_features=64, bias=False)
      )
      (f_44): Embedding(18, 64, padding_idx=0)
      (f_64): DenseEmbedding(
        embedding_dim=64, bias=False, batch_norm=True
        (batch_norm_layer): BatchNorm1d(1, eps=1e-05, momentum=0.1, affine=True, track_running_stats=True)
        (weight): Linear(in_features=1, out_features=64, bias=False)
      )
      (f_43): DenseEmbedding(
        embedding_dim=64, bias=False, batch_norm=True
        (batch_norm_layer): BatchNorm1d(1, eps=1e-05, momentum=0.1, affine=True, track_running_stats=True)
        (weight): Linear(in_features=1, out_features=64, bias=False)
      )
      (f_9): Embedding(8, 64, padding_idx=0)
      (f_57): Embedding(415, 64, padding_idx=0)
      (f_48): Embedding(21, 64, padding_idx=0)
      (f_66): DenseEmbedding(
        embedding_dim=64, bias=False, batch_norm=True
        (batch_norm_layer): BatchNorm1d(1, eps=1e-05, momentum=0.1, affine=True, track_running_stats=True)
        (weight): Linear(in_features=1, out_features=64, bias=False)
      )
      (f_58): DenseEmbedding(
        embedding_dim=64, bias=False, batch_norm=True
        (batch_norm_layer): BatchNorm1d(1, eps=1e-05, momentum=0.1, affine=True, track_running_stats=True)
        (weight): Linear(in_features=1, out_features=64, bias=False)
      )
      (f_26): Embedding(3, 64, padding_idx=0)
      (f_18): Embedding(543, 64, padding_idx=0)
      (f_35): Embedding(3, 64, padding_idx=0)
      (f_67): DenseEmbedding(
        embedding_dim=64, bias=False, batch_norm=True
        (batch_norm_layer): BatchNorm1d(1, eps=1e-05, momentum=0.1, affine=True, track_running_stats=True)
        (weight): Linear(in_features=1, out_features=64, bias=False)
      )
      (f_41): Embedding(3, 64, padding_idx=0)
      (f_2): Embedding(136, 64, padding_idx=0)
      (f_68): DenseEmbedding(
        embedding_dim=64, bias=False, batch_norm=True
        (batch_norm_layer): BatchNorm1d(1, eps=1e-05, momentum=0.1, affine=True, track_running_stats=True)
        (weight): Linear(in_features=1, out_features=64, bias=False)
      )
      (f_70): DenseEmbedding(
        embedding_dim=64, bias=False, batch_norm=True
        (batch_norm_layer): BatchNorm1d(1, eps=1e-05, momentum=0.1, affine=True, track_running_stats=True)
        (weight): Linear(in_features=1, out_features=64, bias=False)
      )
      (f_38): Embedding(3, 64, padding_idx=0)
      (f_30): Embedding(3, 64, padding_idx=0)
      (f_21): Embedding(35, 64, padding_idx=0)
      (f_75): Embedding(32, 64, padding_idx=0)
      (f_31): Embedding(3, 64, padding_idx=0)
      (f_72): Embedding(12, 64, padding_idx=0)
      (f_14): Embedding(19, 64, padding_idx=0)
      (f_5): Embedding(7, 64, padding_idx=0)
      (f_51): Embedding(1725, 64, padding_idx=0)
      (f_20): Embedding(56, 64, padding_idx=0)
      (f_54): Embedding(172, 64, padding_idx=0)
      (f_56): Embedding(182, 64, padding_idx=0)
      (f_71): Embedding(5, 64, padding_idx=0)
      (f_17): Embedding(42, 64, padding_idx=0)
      (f_61): Embedding(584, 64, padding_idx=0)
      (f_12): Embedding(25, 64, padding_idx=0)
      (f_73): Embedding(9, 64, padding_idx=0)
      (f_3): Embedding(6, 64, padding_idx=0)
      (f_1): DenseEmbedding(
        embedding_dim=64, bias=False, batch_norm=True
        (batch_norm_layer): BatchNorm1d(1, eps=1e-05, momentum=0.1, affine=True, track_running_stats=True)
        (weight): Linear(in_features=1, out_features=64, bias=False)
      )
      (f_79): Embedding(7, 64, padding_idx=0)
      (f_25): Embedding(4, 64, padding_idx=0)
      (f_60): Embedding(232, 64, padding_idx=0)
      (f_53): Embedding(85, 64, padding_idx=0)
      (f_74): Embedding(5, 64, padding_idx=0)
      (f_50): Embedding(22, 64, padding_idx=0)
      (f_24): Embedding(5, 64, padding_idx=0)
      (f_46): Embedding(11, 64, padding_idx=0)
      (f_49): Embedding(15, 64, padding_idx=0)
      (f_8): Embedding(7, 64, padding_idx=0)
      (f_63): Embedding(298, 64, padding_idx=0)
      (f_52): Embedding(133, 64, padding_idx=0)
      (f_4): Embedding(631, 64, padding_idx=0)
      (f_45): Embedding(19, 64, padding_idx=0)
      (f_34): Embedding(3, 64, padding_idx=0)
      (f_62): Embedding(1032, 64, padding_idx=0)
      (f_55): Embedding(306, 64, padding_idx=0)
      (f_23): Embedding(5, 64, padding_idx=0)
      (f_76): Embedding(9, 64, padding_idx=0)
      (f_6): Embedding(4455, 64, padding_idx=0)
      (f_47): Embedding(21, 64, padding_idx=0)
      (f_77): Embedding(5, 64, padding_idx=0)
      (f_15): Embedding(4277, 64, padding_idx=0)
      (f_40): Embedding(3, 64, padding_idx=0)
      (f_59): DenseEmbedding(
        embedding_dim=64, bias=False, batch_norm=True
        (batch_norm_layer): BatchNorm1d(1, eps=1e-05, momentum=0.1, affine=True, track_running_stats=True)
        (weight): Linear(in_features=1, out_features=64, bias=False)
      )
      (f_36): Embedding(3, 64, padding_idx=0)
      (f_22): Embedding(25, 64, padding_idx=0)
      (f_37): Embedding(3, 64, padding_idx=0)
      (f_42): Embedding(6725, 64, padding_idx=0)
      (f_33): Embedding(3, 64, padding_idx=0)
      (f_11): Embedding(25, 64, padding_idx=0)
      (f_10): Embedding(4, 64, padding_idx=0)
      (f_39): Embedding(3, 64, padding_idx=0)
      (f_78): Embedding(11, 64, padding_idx=0)
      (f_32): Embedding(5, 64, padding_idx=0)
      (f_19): Embedding(20, 64, padding_idx=0)
      (f_16): Embedding(11, 64, padding_idx=0)
      (f_13): Embedding(206, 64, padding_idx=0)
    )
  )
  (extraction_layers): Sequential(
    (0): ExtractionLayer(
      specific_experts_per_task=4, num_task=2, num_shared_experts=3
      (specific_experts): ModuleList(
        (0-1): 2 x ModuleList(
          (0-3): 4 x MLPModule(
            (model): Sequential(
              (0): Dropout(p=0.1, inplace=False)
              (1): Linear(in_features=4800, out_features=128, bias=True)
              (2): ReLU()
              (3): Dropout(p=0.1, inplace=False)
              (4): Linear(in_features=128, out_features=128, bias=True)
              (5): ReLU()
            )
          )
        )
      )
      (shared_experts): ModuleList(
        (0-2): 3 x MLPModule(
          (model): Sequential(
            (0): Dropout(p=0.1, inplace=False)
            (1): Linear(in_features=4800, out_features=128, bias=True)
            (2): ReLU()
            (3): Dropout(p=0.1, inplace=False)
            (4): Linear(in_features=128, out_features=128, bias=True)
            (5): ReLU()
          )
        )
      )
      (gates): ModuleList(
        (0-1): 2 x MLPModule(
          (model): Sequential(
            (0): Dropout(p=0.1, inplace=False)
            (1): Linear(in_features=4800, out_features=128, bias=True)
            (2): ReLU()
            (3): Dropout(p=0.1, inplace=False)
            (4): Linear(in_features=128, out_features=7, bias=True)
            (5): ReLU()
            (6): Softmax(dim=-1)
          )
        )
      )
      (shared_gates): MLPModule(
        (model): Sequential(
          (0): Dropout(p=0.1, inplace=False)
          (1): Linear(in_features=4800, out_features=128, bias=True)
          (2): ReLU()
          (3): Dropout(p=0.1, inplace=False)
          (4): Linear(in_features=128, out_features=11, bias=True)
          (5): ReLU()
          (6): Softmax(dim=-1)
        )
      )
    )
    (1): ExtractionLayer(
      specific_experts_per_task=4, num_task=2, num_shared_experts=3
      (specific_experts): ModuleList(
        (0-1): 2 x ModuleList(
          (0-3): 4 x MLPModule(
            (model): Sequential(
              (0): Dropout(p=0.1, inplace=False)
              (1): Linear(in_features=128, out_features=128, bias=True)
              (2): ReLU()
              (3): Dropout(p=0.1, inplace=False)
              (4): Linear(in_features=128, out_features=128, bias=True)
              (5): ReLU()
            )
          )
        )
      )
      (shared_experts): ModuleList(
        (0-2): 3 x MLPModule(
          (model): Sequential(
            (0): Dropout(p=0.1, inplace=False)
            (1): Linear(in_features=128, out_features=128, bias=True)
            (2): ReLU()
            (3): Dropout(p=0.1, inplace=False)
            (4): Linear(in_features=128, out_features=128, bias=True)
            (5): ReLU()
          )
        )
      )
      (gates): ModuleList(
        (0-1): 2 x MLPModule(
          (model): Sequential(
            (0): Dropout(p=0.1, inplace=False)
            (1): Linear(in_features=128, out_features=128, bias=True)
            (2): ReLU()
            (3): Dropout(p=0.1, inplace=False)
            (4): Linear(in_features=128, out_features=7, bias=True)
            (5): ReLU()
            (6): Softmax(dim=-1)
          )
        )
      )
    )
  )
  (towers): ModuleDict(
    (is_clicked): MLPModule(
      (model): Sequential(
        (0): Dropout(p=0.1, inplace=False)
        (1): Linear(in_features=128, out_features=128, bias=True)
        (2): ReLU()
        (3): Dropout(p=0.1, inplace=False)
        (4): Linear(in_features=128, out_features=1, bias=True)
      )
    )
    (is_installed): MLPModule(
      (model): Sequential(
        (0): Dropout(p=0.1, inplace=False)
        (1): Linear(in_features=128, out_features=128, bias=True)
        (2): ReLU()
        (3): Dropout(p=0.1, inplace=False)
        (4): Linear(in_features=128, out_features=1, bias=True)
      )
    )
  )
)
[2023-06-19 11:08:32] INFO GPU id [0] are selected.
[2023-06-19 11:09:44] INFO Training: Epoch=  0 [train_loss_0=0.2823 is_clicked logloss=0.6260 accuracy=0.6359 f1=0.0000 precision=0.0000 recall=0.0000 auc=0.6899 train_loss_0=0.4603 is_installed logloss=0.3701 accuracy=0.8267 f1=0.2661 precision=0.6587 recall=0.1669 auc=0.8354 train_loss_0=0.2823]
…
