…
	activation=tanh
	dropout=0.3
train:
	accelerator=gpu
	ann=None
	batch_size=512
	early_stop_mode=min
	early_stop_patience=10
	epochs=1000
	gpu=[2]
	grad_clip_norm=None
	init_method=xavier_normal
	item_batch_size=1024
	learner=adam
	learning_rate=0.005
	num_threads=10
	sampling_method=none
	sampler=uniform
	negative_count=0
	excluding_hist=False
	scheduler=exponential
	seed=2022
	weight_decay=1e-06
	tensorboard_path=None
[2023-06-17 21:51:52] INFO save_dir:./saved/
[2023-06-17 21:51:52] INFO DeepFM(
  (loss_fn): BCEWithLogitLoss()
  (linear): LinearLayer(
    bias=True
    (embeddings): ModuleDict(
      (f_74): Embedding(5, 1, padding_idx=0)
      (f_8): Embedding(7, 1, padding_idx=0)
      (f_11): Embedding(25, 1, padding_idx=0)
      (f_25): Embedding(4, 1, padding_idx=0)
      (f_4): Embedding(631, 1, padding_idx=0)
      (f_52): Embedding(133, 1, padding_idx=0)
      (f_61): Embedding(584, 1, padding_idx=0)
      (f_34): Embedding(3, 1, padding_idx=0)
      (f_23): Embedding(5, 1, padding_idx=0)
      (f_37): Embedding(3, 1, padding_idx=0)
      (f_76): Embedding(9, 1, padding_idx=0)
      (f_30): Embedding(3, 1, padding_idx=0)
      (f_20): Embedding(56, 1, padding_idx=0)
      (f_75): Embedding(32, 1, padding_idx=0)
      (f_69): DenseEmbedding(
        embedding_dim=1, bias=False, batch_norm=True
        (batch_norm_layer): BatchNorm1d(1, eps=1e-05, momentum=0.1, affine=True, track_running_stats=True)
        (weight): Linear(in_features=1, out_features=1, bias=False)
      )
      (f_54): Embedding(172, 1, padding_idx=0)
      (f_56): Embedding(182, 1, padding_idx=0)
      (f_15): Embedding(4277, 1, padding_idx=0)
      (f_46): Embedding(11, 1, padding_idx=0)
      (f_44): Embedding(18, 1, padding_idx=0)
      (f_48): Embedding(21, 1, padding_idx=0)
      (f_51): Embedding(1725, 1, padding_idx=0)
      (f_35): Embedding(3, 1, padding_idx=0)
      (f_68): DenseEmbedding(
        embedding_dim=1, bias=False, batch_norm=True
        (batch_norm_layer): BatchNorm1d(1, eps=1e-05, momentum=0.1, affine=True, track_running_stats=True)
        (weight): Linear(in_features=1, out_features=1, bias=False)
      )
      (f_79): Embedding(7, 1, padding_idx=0)
      (f_21): Embedding(35, 1, padding_idx=0)
      (f_45): Embedding(19, 1, padding_idx=0)
      (f_16): Embedding(11, 1, padding_idx=0)
      (f_41): Embedding(3, 1, padding_idx=0)
      (f_17): Embedding(42, 1, padding_idx=0)
      (f_26): Embedding(3, 1, padding_idx=0)
      (f_9): Embedding(8, 1, padding_idx=0)
      (f_12): Embedding(25, 1, padding_idx=0)
      (f_1): DenseEmbedding(
        embedding_dim=1, bias=False, batch_norm=True
        (batch_norm_layer): BatchNorm1d(1, eps=1e-05, momentum=0.1, affine=True, track_running_stats=True)
        (weight): Linear(in_features=1, out_features=1, bias=False)
      )
      (f_53): Embedding(85, 1, padding_idx=0)
      (f_58): DenseEmbedding(
        embedding_dim=1, bias=False, batch_norm=True
        (batch_norm_layer): BatchNorm1d(1, eps=1e-05, momentum=0.1, affine=True, track_running_stats=True)
        (weight): Linear(in_features=1, out_features=1, bias=False)
      )
      (f_32): Embedding(5, 1, padding_idx=0)
      (f_36): Embedding(3, 1, padding_idx=0)
      (f_10): Embedding(4, 1, padding_idx=0)
      (f_47): Embedding(21, 1, padding_idx=0)
      (f_43): DenseEmbedding(
        embedding_dim=1, bias=False, batch_norm=True
        (batch_norm_layer): BatchNorm1d(1, eps=1e-05, momentum=0.1, affine=True, track_running_stats=True)
        (weight): Linear(in_features=1, out_features=1, bias=False)
      )
      (f_60): Embedding(232, 1, padding_idx=0)
      (f_62): Embedding(1032, 1, padding_idx=0)
      (f_5): Embedding(7, 1, padding_idx=0)
      (f_64): DenseEmbedding(
        embedding_dim=1, bias=False, batch_norm=True
        (batch_norm_layer): BatchNorm1d(1, eps=1e-05, momentum=0.1, affine=True, track_running_stats=True)
        (weight): Linear(in_features=1, out_features=1, bias=False)
      )
      (f_72): Embedding(12, 1, padding_idx=0)
      (f_73): Embedding(9, 1, padding_idx=0)
      (f_49): Embedding(15, 1, padding_idx=0)
      (f_3): Embedding(6, 1, padding_idx=0)
      (f_22): Embedding(25, 1, padding_idx=0)
      (f_31): Embedding(3, 1, padding_idx=0)
      (f_59): DenseEmbedding(
        embedding_dim=1, bias=False, batch_norm=True
        (batch_norm_layer): BatchNorm1d(1, eps=1e-05, momentum=0.1, affine=True, track_running_stats=True)
        (weight): Linear(in_features=1, out_features=1, bias=False)
      )
      (f_77): Embedding(5, 1, padding_idx=0)
      (f_39): Embedding(3, 1, padding_idx=0)
      (f_42): Embedding(6725, 1, padding_idx=0)
      (f_70): DenseEmbedding(
        embedding_dim=1, bias=False, batch_norm=True
        (batch_norm_layer): BatchNorm1d(1, eps=1e-05, momentum=0.1, affine=True, track_running_stats=True)
        (weight): Linear(in_features=1, out_features=1, bias=False)
      )
      (f_24): Embedding(5, 1, padding_idx=0)
      (f_18): Embedding(543, 1, padding_idx=0)
      (f_6): Embedding(4455, 1, padding_idx=0)
      (f_67): DenseEmbedding(
        embedding_dim=1, bias=False, batch_norm=True
        (batch_norm_layer): BatchNorm1d(1, eps=1e-05, momentum=0.1, affine=True, track_running_stats=True)
        (weight): Linear(in_features=1, out_features=1, bias=False)
      )
      (f_33): Embedding(3, 1, padding_idx=0)
      (f_65): DenseEmbedding(
        embedding_dim=1, bias=False, batch_norm=True
        (batch_norm_layer): BatchNorm1d(1, eps=1e-05, momentum=0.1, affine=True, track_running_stats=True)
        (weight): Linear(in_features=1, out_features=1, bias=False)
      )
      (f_71): Embedding(5, 1, padding_idx=0)
      (f_55): Embedding(306, 1, padding_idx=0)
      (f_13): Embedding(206, 1, padding_idx=0)
      (f_40): Embedding(3, 1, padding_idx=0)
      (f_50): Embedding(22, 1, padding_idx=0)
      (f_19): Embedding(20, 1, padding_idx=0)
      (f_63): Embedding(298, 1, padding_idx=0)
      (f_14): Embedding(19, 1, padding_idx=0)
      (f_57): Embedding(415, 1, padding_idx=0)
      (f_78): Embedding(11, 1, padding_idx=0)
      (f_66): DenseEmbedding(
        embedding_dim=1, bias=False, batch_norm=True
        (batch_norm_layer): BatchNorm1d(1, eps=1e-05, momentum=0.1, affine=True, track_running_stats=True)
        (weight): Linear(in_features=1, out_features=1, bias=False)
      )
      (f_2): Embedding(136, 1, padding_idx=0)
      (f_38): Embedding(3, 1, padding_idx=0)
    )
  )
  (fm): FMLayer(reduction=sum)
  (embedding): Embeddings(
    num_features=75, embed_dim=64, reduction=mean
    (embeddings): ModuleDict(
      (f_74): Embedding(5, 64, padding_idx=0)
      (f_8): Embedding(7, 64, padding_idx=0)
      (f_11): Embedding(25, 64, padding_idx=0)
      (f_25): Embedding(4, 64, padding_idx=0)
      (f_4): Embedding(631, 64, padding_idx=0)
      (f_52): Embedding(133, 64, padding_idx=0)
      (f_61): Embedding(584, 64, padding_idx=0)
      (f_34): Embedding(3, 64, padding_idx=0)
      (f_23): Embedding(5, 64, padding_idx=0)
      (f_37): Embedding(3, 64, padding_idx=0)
      (f_76): Embedding(9, 64, padding_idx=0)
      (f_30): Embedding(3, 64, padding_idx=0)
      (f_20): Embedding(56, 64, padding_idx=0)
      (f_75): Embedding(32, 64, padding_idx=0)
      (f_69): DenseEmbedding(
        embedding_dim=64, bias=False, batch_norm=True
        (batch_norm_layer): BatchNorm1d(1, eps=1e-05, momentum=0.1, affine=True, track_running_stats=True)
        (weight): Linear(in_features=1, out_features=64, bias=False)
      )
      (f_54): Embedding(172, 64, padding_idx=0)
      (f_56): Embedding(182, 64, padding_idx=0)
      (f_15): Embedding(4277, 64, padding_idx=0)
      (f_46): Embedding(11, 64, padding_idx=0)
      (f_44): Embedding(18, 64, padding_idx=0)
      (f_48): Embedding(21, 64, padding_idx=0)
      (f_51): Embedding(1725, 64, padding_idx=0)
      (f_35): Embedding(3, 64, padding_idx=0)
      (f_68): DenseEmbedding(
        embedding_dim=64, bias=False, batch_norm=True
        (batch_norm_layer): BatchNorm1d(1, eps=1e-05, momentum=0.1, affine=True, track_running_stats=True)
        (weight): Linear(in_features=1, out_features=64, bias=False)
      )
      (f_79): Embedding(7, 64, padding_idx=0)
      (f_21): Embedding(35, 64, padding_idx=0)
      (f_45): Embedding(19, 64, padding_idx=0)
      (f_16): Embedding(11, 64, padding_idx=0)
      (f_41): Embedding(3, 64, padding_idx=0)
      (f_17): Embedding(42, 64, padding_idx=0)
      (f_26): Embedding(3, 64, padding_idx=0)
      (f_9): Embedding(8, 64, padding_idx=0)
      (f_12): Embedding(25, 64, padding_idx=0)
      (f_1): DenseEmbedding(
        embedding_dim=64, bias=False, batch_norm=True
        (batch_norm_layer): BatchNorm1d(1, eps=1e-05, momentum=0.1, affine=True, track_running_stats=True)
        (weight): Linear(in_features=1, out_features=64, bias=False)
      )
      (f_53): Embedding(85, 64, padding_idx=0)
      (f_58): DenseEmbedding(
        embedding_dim=64, bias=False, batch_norm=True
        (batch_norm_layer): BatchNorm1d(1, eps=1e-05, momentum=0.1, affine=True, track_running_stats=True)
        (weight): Linear(in_features=1, out_features=64, bias=False)
      )
      (f_32): Embedding(5, 64, padding_idx=0)
      (f_36): Embedding(3, 64, padding_idx=0)
      (f_10): Embedding(4, 64, padding_idx=0)
      (f_47): Embedding(21, 64, padding_idx=0)
      (f_43): DenseEmbedding(
        embedding_dim=64, bias=False, batch_norm=True
        (batch_norm_layer): BatchNorm1d(1, eps=1e-05, momentum=0.1, affine=True, track_running_stats=True)
        (weight): Linear(in_features=1, out_features=64, bias=False)
      )
      (f_60): Embedding(232, 64, padding_idx=0)
      (f_62): Embedding(1032, 64, padding_idx=0)
      (f_5): Embedding(7, 64, padding_idx=0)
      (f_64): DenseEmbedding(
        embedding_dim=64, bias=False, batch_norm=True
        (batch_norm_layer): BatchNorm1d(1, eps=1e-05, momentum=0.1, affine=True, track_running_stats=True)
        (weight): Linear(in_features=1, out_features=64, bias=False)
      )
      (f_72): Embedding(12, 64, padding_idx=0)
      (f_73): Embedding(9, 64, padding_idx=0)
      (f_49): Embedding(15, 64, padding_idx=0)
      (f_3): Embedding(6, 64, padding_idx=0)
      (f_22): Embedding(25, 64, padding_idx=0)
      (f_31): Embedding(3, 64, padding_idx=0)
      (f_59): DenseEmbedding(
        embedding_dim=64, bias=False, batch_norm=True
        (batch_norm_layer): BatchNorm1d(1, eps=1e-05, momentum=0.1, affine=True, track_running_stats=True)
        (weight): Linear(in_features=1, out_features=64, bias=False)
      )
      (f_77): Embedding(5, 64, padding_idx=0)
      (f_39): Embedding(3, 64, padding_idx=0)
      (f_42): Embedding(6725, 64, padding_idx=0)
      (f_70): DenseEmbedding(
        embedding_dim=64, bias=False, batch_norm=True
        (batch_norm_layer): BatchNorm1d(1, eps=1e-05, momentum=0.1, affine=True, track_running_stats=True)
        (weight): Linear(in_features=1, out_features=64, bias=False)
      )
      (f_24): Embedding(5, 64, padding_idx=0)
      (f_18): Embedding(543, 64, padding_idx=0)
      (f_6): Embedding(4455, 64, padding_idx=0)
      (f_67): DenseEmbedding(
        embedding_dim=64, bias=False, batch_norm=True
        (batch_norm_layer): BatchNorm1d(1, eps=1e-05, momentum=0.1, affine=True, track_running_stats=True)
        (weight): Linear(in_features=1, out_features=64, bias=False)
      )
      (f_33): Embedding(3, 64, padding_idx=0)
      (f_65): DenseEmbedding(
        embedding_dim=64, bias=False, batch_norm=True
        (batch_norm_layer): BatchNorm1d(1, eps=1e-05, momentum=0.1, affine=True, track_running_stats=True)
        (weight): Linear(in_features=1, out_features=64, bias=False)
      )
      (f_71): Embedding(5, 64, padding_idx=0)
      (f_55): Embedding(306, 64, padding_idx=0)
      (f_13): Embedding(206, 64, padding_idx=0)
      (f_40): Embedding(3, 64, padding_idx=0)
      (f_50): Embedding(22, 64, padding_idx=0)
      (f_19): Embedding(20, 64, padding_idx=0)
      (f_63): Embedding(298, 64, padding_idx=0)
      (f_14): Embedding(19, 64, padding_idx=0)
      (f_57): Embedding(415, 64, padding_idx=0)
      (f_78): Embedding(11, 64, padding_idx=0)
      (f_66): DenseEmbedding(
        embedding_dim=64, bias=False, batch_norm=True
        (batch_norm_layer): BatchNorm1d(1, eps=1e-05, momentum=0.1, affine=True, track_running_stats=True)
        (weight): Linear(in_features=1, out_features=64, bias=False)
      )
      (f_2): Embedding(136, 64, padding_idx=0)
      (f_38): Embedding(3, 64, padding_idx=0)
    )
  )
  (mlp): MLPModule(
    (model): Sequential(
      (0): Dropout(p=0.3, inplace=False)
      (1): Linear(in_features=4800, out_features=256, bias=True)
      (2): Tanh()
      (3): Dropout(p=0.3, inplace=False)
      (4): Linear(in_features=256, out_features=128, bias=True)
      (5): Tanh()
      (6): Dropout(p=0.3, inplace=False)
      (7): Linear(in_features=128, out_features=1, bias=True)
    )
  )
)
[2023-06-17 21:51:52] INFO GPU id [2] are selected.
[2023-06-17 21:53:03] INFO Training: Epoch=  0 [logloss=0.4884 accuracy=0.8145 f1=0.1783 precision=0.5400 recall=0.1069 auc=0.7904 train_loss_0=0.3744]
[2023-06-17 21:53:03] INFO Train time: 70.21694s. Valid time: 0.17984s. GPU RAM: 0.35/10.76 GB
[2023-06-17 21:53:03] INFO logloss improved. Best value: 0.4884
…
