…
	accelerator=gpu
	ann=None
	batch_size=512
	early_stop_mode=min
	early_stop_patience=10
	epochs=1000
	gpu=[7]
	grad_clip_norm=None
	init_method=xavier_normal
	item_batch_size=1024
	learner=adam
	learning_rate=0.001
	num_threads=10
	sampling_method=none
	sampler=uniform
	negative_count=0
	excluding_hist=False
	scheduler=None
	seed=2022
	weight_decay=0.0
	tensorboard_path=None
[2023-06-17 21:29:54] INFO save_dir:./saved/
[2023-06-17 21:29:54] INFO FwFM(
  (loss_fn): BCEWithLogitLoss()
  (embedding): Embeddings(
    num_features=75, embed_dim=10, reduction=mean
    (embeddings): ModuleDict(
      (f_76): Embedding(9, 10, padding_idx=0)
      (f_21): Embedding(36, 10, padding_idx=0)
      (f_13): Embedding(332, 10, padding_idx=0)
      (f_15): Embedding(5855, 10, padding_idx=0)
      (f_45): Embedding(24, 10, padding_idx=0)
      (f_14): Embedding(20, 10, padding_idx=0)
      (f_61): Embedding(826, 10, padding_idx=0)
      (f_18): Embedding(925, 10, padding_idx=0)
      (f_4): Embedding(639, 10, padding_idx=0)
      (f_46): Embedding(12, 10, padding_idx=0)
      (f_2): Embedding(140, 10, padding_idx=0)
      (f_30): Embedding(3, 10, padding_idx=0)
      (f_1): DenseEmbedding(
        embedding_dim=10, bias=False, batch_norm=True
        (batch_norm_layer): BatchNorm1d(1, eps=1e-05, momentum=0.1, affine=True, track_running_stats=True)
        (weight): Linear(in_features=1, out_features=10, bias=False)
      )
      (f_64): DenseEmbedding(
        embedding_dim=10, bias=False, batch_norm=True
        (batch_norm_layer): BatchNorm1d(1, eps=1e-05, momentum=0.1, affine=True, track_running_stats=True)
        (weight): Linear(in_features=1, out_features=10, bias=False)
      )
      (f_78): Embedding(14, 10, padding_idx=0)
      (f_48): Embedding(28, 10, padding_idx=0)
      (f_24): Embedding(5, 10, padding_idx=0)
      (f_53): Embedding(103, 10, padding_idx=0)
      (f_17): Embedding(50, 10, padding_idx=0)
      (f_36): Embedding(3, 10, padding_idx=0)
      (f_47): Embedding(28, 10, padding_idx=0)
      (f_49): Embedding(21, 10, padding_idx=0)
      (f_50): Embedding(35, 10, padding_idx=0)
      (f_3): Embedding(6, 10, padding_idx=0)
      (f_31): Embedding(3, 10, padding_idx=0)
      (f_37): Embedding(3, 10, padding_idx=0)
      (f_71): Embedding(5, 10, padding_idx=0)
      (f_38): Embedding(3, 10, padding_idx=0)
      (f_63): Embedding(408, 10, padding_idx=0)
      (f_72): Embedding(12, 10, padding_idx=0)
      (f_79): Embedding(8, 10, padding_idx=0)
      (f_77): Embedding(5, 10, padding_idx=0)
      (f_6): Embedding(5235, 10, padding_idx=0)
      (f_43): DenseEmbedding(
        embedding_dim=10, bias=False, batch_norm=True
        (batch_norm_layer): BatchNorm1d(1, eps=1e-05, momentum=0.1, affine=True, track_running_stats=True)
        (weight): Linear(in_features=1, out_features=10, bias=False)
      )
      (f_40): Embedding(3, 10, padding_idx=0)
      (f_52): Embedding(172, 10, padding_idx=0)
      (f_8): Embedding(7, 10, padding_idx=0)
      (f_75): Embedding(32, 10, padding_idx=0)
      (f_74): Embedding(5, 10, padding_idx=0)
      (f_66): DenseEmbedding(
        embedding_dim=10, bias=False, batch_norm=True
        (batch_norm_layer): BatchNorm1d(1, eps=1e-05, momentum=0.1, affine=True, track_running_stats=True)
        (weight): Linear(in_features=1, out_features=10, bias=False)
      )
      (f_68): DenseEmbedding(
        embedding_dim=10, bias=False, batch_norm=True
        (batch_norm_layer): BatchNorm1d(1, eps=1e-05, momentum=0.1, affine=True, track_running_stats=True)
        (weight): Linear(in_features=1, out_features=10, bias=False)
      )
      (f_32): Embedding(5, 10, padding_idx=0)
      (f_23): Embedding(5, 10, padding_idx=0)
      (f_56): Embedding(221, 10, padding_idx=0)
      (f_12): Embedding(27, 10, padding_idx=0)
      (f_58): DenseEmbedding(
        embedding_dim=10, bias=False, batch_norm=True
        (batch_norm_layer): BatchNorm1d(1, eps=1e-05, momentum=0.1, affine=True, track_running_stats=True)
        (weight): Linear(in_features=1, out_features=10, bias=False)
      )
      (f_19): Embedding(20, 10, padding_idx=0)
      (f_59): DenseEmbedding(
        embedding_dim=10, bias=False, batch_norm=True
        (batch_norm_layer): BatchNorm1d(1, eps=1e-05, momentum=0.1, affine=True, track_running_stats=True)
        (weight): Linear(in_features=1, out_features=10, bias=False)
      )
      (f_62): Embedding(1397, 10, padding_idx=0)
      (f_35): Embedding(3, 10, padding_idx=0)
      (f_73): Embedding(9, 10, padding_idx=0)
      (f_22): Embedding(27, 10, padding_idx=0)
      (f_67): DenseEmbedding(
        embedding_dim=10, bias=False, batch_norm=True
        (batch_norm_layer): BatchNorm1d(1, eps=1e-05, momentum=0.1, affine=True, track_running_stats=True)
        (weight): Linear(in_features=1, out_features=10, bias=False)
      )
      (f_54): Embedding(213, 10, padding_idx=0)
      (f_11): Embedding(25, 10, padding_idx=0)
      (f_65): DenseEmbedding(
        embedding_dim=10, bias=False, batch_norm=True
        (batch_norm_layer): BatchNorm1d(1, eps=1e-05, momentum=0.1, affine=True, track_running_stats=True)
        (weight): Linear(in_features=1, out_features=10, bias=False)
      )
      (f_26): Embedding(3, 10, padding_idx=0)
      (f_51): Embedding(1829, 10, padding_idx=0)
      (f_70): DenseEmbedding(
        embedding_dim=10, bias=False, batch_norm=True
        (batch_norm_layer): BatchNorm1d(1, eps=1e-05, momentum=0.1, affine=True, track_running_stats=True)
        (weight): Linear(in_features=1, out_features=10, bias=False)
      )
      (f_69): DenseEmbedding(
        embedding_dim=10, bias=False, batch_norm=True
        (batch_norm_layer): BatchNorm1d(1, eps=1e-05, momentum=0.1, affine=True, track_running_stats=True)
        (weight): Linear(in_features=1, out_features=10, bias=False)
      )
      (f_39): Embedding(3, 10, padding_idx=0)
      (f_5): Embedding(7, 10, padding_idx=0)
      (f_34): Embedding(3, 10, padding_idx=0)
      (f_10): Embedding(4, 10, padding_idx=0)
      (f_20): Embedding(58, 10, padding_idx=0)
      (f_42): Embedding(8883, 10, padding_idx=0)
      (f_25): Embedding(4, 10, padding_idx=0)
      (f_9): Embedding(8, 10, padding_idx=0)
      (f_33): Embedding(3, 10, padding_idx=0)
      (f_16): Embedding(13, 10, padding_idx=0)
      (f_44): Embedding(22, 10, padding_idx=0)
      (f_41): Embedding(3, 10, padding_idx=0)
      (f_57): Embedding(517, 10, padding_idx=0)
      (f_55): Embedding(390, 10, padding_idx=0)
      (f_60): Embedding(403, 10, padding_idx=0)
    )
  )
  (fwfm): Sequential(
    (fm_layer): InnerProductLayer()
    (field_weighted): Linear(in_features=2775, out_features=1, bias=True)
  )
  (linear): Linear(in_features=750, out_features=1, bias=False)
)
[2023-06-17 21:29:54] INFO GPU id [7] are selected.
[2023-06-17 21:32:11] INFO Training: Epoch=  0 [logloss=0.3838 accuracy=0.8241 f1=0.2736 precision=0.6049 recall=0.1769 auc=0.8221 train_loss_0=0.2744]
[2023-06-17 21:32:11] INFO Train time: 135.99687s. Valid time: 0.82307s. GPU RAM: 1.59/10.76 GB
[2023-06-17 21:32:11] INFO logloss improved. Best value: 0.3838
…
