…
	batch_size=512
	early_stop_mode=min
	early_stop_patience=10
	epochs=1000
	gpu=[0]
	grad_clip_norm=None
	init_method=xavier_normal
	item_batch_size=1024
	learner=adam
	learning_rate=0.001
	num_threads=10
	sampling_method=none
	sampler=uniform
	negative_count=0
	excluding_hist=False
	scheduler=None
	seed=2022
	weight_decay=0.0
	tensorboard_path=None
[2023-06-17 20:14:22] INFO save_dir:./saved/
[2023-06-17 20:14:22] INFO FM(
  (loss_fn): BCEWithLogitLoss()
  (fm): Sequential(
    (embeddings): Embeddings(
      num_features=75, embed_dim=60, reduction=mean
      (embeddings): ModuleDict(
        (f_18): Embedding(925, 60, padding_idx=0)
        (f_31): Embedding(3, 60, padding_idx=0)
        (f_53): Embedding(103, 60, padding_idx=0)
        (f_33): Embedding(3, 60, padding_idx=0)
        (f_67): DenseEmbedding(
          embedding_dim=60, bias=False, batch_norm=True
          (batch_norm_layer): BatchNorm1d(1, eps=1e-05, momentum=0.1, affine=True, track_running_stats=True)
          (weight): Linear(in_features=1, out_features=60, bias=False)
        )
        (f_9): Embedding(8, 60, padding_idx=0)
        (f_25): Embedding(4, 60, padding_idx=0)
        (f_5): Embedding(7, 60, padding_idx=0)
        (f_30): Embedding(3, 60, padding_idx=0)
        (f_61): Embedding(826, 60, padding_idx=0)
        (f_79): Embedding(8, 60, padding_idx=0)
        (f_72): Embedding(12, 60, padding_idx=0)
        (f_58): DenseEmbedding(
          embedding_dim=60, bias=False, batch_norm=True
          (batch_norm_layer): BatchNorm1d(1, eps=1e-05, momentum=0.1, affine=True, track_running_stats=True)
          (weight): Linear(in_features=1, out_features=60, bias=False)
        )
        (f_3): Embedding(6, 60, padding_idx=0)
        (f_50): Embedding(35, 60, padding_idx=0)
        (f_74): Embedding(5, 60, padding_idx=0)
        (f_60): Embedding(403, 60, padding_idx=0)
        (f_62): Embedding(1397, 60, padding_idx=0)
        (f_6): Embedding(5235, 60, padding_idx=0)
        (f_36): Embedding(3, 60, padding_idx=0)
        (f_65): DenseEmbedding(
          embedding_dim=60, bias=False, batch_norm=True
          (batch_norm_layer): BatchNorm1d(1, eps=1e-05, momentum=0.1, affine=True, track_running_stats=True)
          (weight): Linear(in_features=1, out_features=60, bias=False)
        )
        (f_2): Embedding(140, 60, padding_idx=0)
        (f_11): Embedding(25, 60, padding_idx=0)
        (f_59): DenseEmbedding(
          embedding_dim=60, bias=False, batch_norm=True
          (batch_norm_layer): BatchNorm1d(1, eps=1e-05, momentum=0.1, affine=True, track_running_stats=True)
          (weight): Linear(in_features=1, out_features=60, bias=False)
        )
        (f_73): Embedding(9, 60, padding_idx=0)
        (f_26): Embedding(3, 60, padding_idx=0)
        (f_43): DenseEmbedding(
          embedding_dim=60, bias=False, batch_norm=True
          (batch_norm_layer): BatchNorm1d(1, eps=1e-05, momentum=0.1, affine=True, track_running_stats=True)
          (weight): Linear(in_features=1, out_features=60, bias=False)
        )
        (f_49): Embedding(21, 60, padding_idx=0)
        (f_56): Embedding(221, 60, padding_idx=0)
        (f_41): Embedding(3, 60, padding_idx=0)
        (f_77): Embedding(5, 60, padding_idx=0)
        (f_76): Embedding(9, 60, padding_idx=0)
        (f_45): Embedding(24, 60, padding_idx=0)
        (f_47): Embedding(28, 60, padding_idx=0)
        (f_40): Embedding(3, 60, padding_idx=0)
        (f_4): Embedding(639, 60, padding_idx=0)
        (f_39): Embedding(3, 60, padding_idx=0)
        (f_32): Embedding(5, 60, padding_idx=0)
        (f_8): Embedding(7, 60, padding_idx=0)
        (f_52): Embedding(172, 60, padding_idx=0)
        (f_66): DenseEmbedding(
          embedding_dim=60, bias=False, batch_norm=True
          (batch_norm_layer): BatchNorm1d(1, eps=1e-05, momentum=0.1, affine=True, track_running_stats=True)
          (weight): Linear(in_features=1, out_features=60, bias=False)
        )
        (f_14): Embedding(20, 60, padding_idx=0)
        (f_13): Embedding(332, 60, padding_idx=0)
        (f_69): DenseEmbedding(
          embedding_dim=60, bias=False, batch_norm=True
          (batch_norm_layer): BatchNorm1d(1, eps=1e-05, momentum=0.1, affine=True, track_running_stats=True)
          (weight): Linear(in_features=1, out_features=60, bias=False)
        )
        (f_1): DenseEmbedding(
          embedding_dim=60, bias=False, batch_norm=True
          (batch_norm_layer): BatchNorm1d(1, eps=1e-05, momentum=0.1, affine=True, track_running_stats=True)
          (weight): Linear(in_features=1, out_features=60, bias=False)
        )
        (f_10): Embedding(4, 60, padding_idx=0)
        (f_16): Embedding(13, 60, padding_idx=0)
        (f_38): Embedding(3, 60, padding_idx=0)
        (f_12): Embedding(27, 60, padding_idx=0)
        (f_37): Embedding(3, 60, padding_idx=0)
        (f_24): Embedding(5, 60, padding_idx=0)
        (f_19): Embedding(20, 60, padding_idx=0)
        (f_55): Embedding(390, 60, padding_idx=0)
        (f_20): Embedding(58, 60, padding_idx=0)
        (f_44): Embedding(22, 60, padding_idx=0)
        (f_42): Embedding(8883, 60, padding_idx=0)
        (f_48): Embedding(28, 60, padding_idx=0)
        (f_64): DenseEmbedding(
          embedding_dim=60, bias=False, batch_norm=True
          (batch_norm_layer): BatchNorm1d(1, eps=1e-05, momentum=0.1, affine=True, track_running_stats=True)
          (weight): Linear(in_features=1, out_features=60, bias=False)
        )
        (f_23): Embedding(5, 60, padding_idx=0)
        (f_54): Embedding(213, 60, padding_idx=0)
        (f_46): Embedding(12, 60, padding_idx=0)
        (f_75): Embedding(32, 60, padding_idx=0)
        (f_34): Embedding(3, 60, padding_idx=0)
        (f_35): Embedding(3, 60, padding_idx=0)
        (f_21): Embedding(36, 60, padding_idx=0)
        (f_51): Embedding(1829, 60, padding_idx=0)
        (f_57): Embedding(517, 60, padding_idx=0)
        (f_63): Embedding(408, 60, padding_idx=0)
        (f_15): Embedding(5855, 60, padding_idx=0)
        (f_68): DenseEmbedding(
          embedding_dim=60, bias=False, batch_norm=True
          (batch_norm_layer): BatchNorm1d(1, eps=1e-05, momentum=0.1, affine=True, track_running_stats=True)
          (weight): Linear(in_features=1, out_features=60, bias=False)
        )
        (f_71): Embedding(5, 60, padding_idx=0)
        (f_70): DenseEmbedding(
          embedding_dim=60, bias=False, batch_norm=True
          (batch_norm_layer): BatchNorm1d(1, eps=1e-05, momentum=0.1, affine=True, track_running_stats=True)
          (weight): Linear(in_features=1, out_features=60, bias=False)
        )
        (f_17): Embedding(50, 60, padding_idx=0)
        (f_22): Embedding(27, 60, padding_idx=0)
        (f_78): Embedding(14, 60, padding_idx=0)
      )
    )
    (fm_layer): FMLayer(reduction=sum)
  )
  (linear): LinearLayer(
    bias=True
    (embeddings): ModuleDict(
      (f_18): Embedding(925, 1, padding_idx=0)
      (f_31): Embedding(3, 1, padding_idx=0)
      (f_53): Embedding(103, 1, padding_idx=0)
      (f_33): Embedding(3, 1, padding_idx=0)
      (f_67): DenseEmbedding(
        embedding_dim=1, bias=False, batch_norm=True
        (batch_norm_layer): BatchNorm1d(1, eps=1e-05, momentum=0.1, affine=True, track_running_stats=True)
        (weight): Linear(in_features=1, out_features=1, bias=False)
      )
      (f_9): Embedding(8, 1, padding_idx=0)
      (f_25): Embedding(4, 1, padding_idx=0)
      (f_5): Embedding(7, 1, padding_idx=0)
      (f_30): Embedding(3, 1, padding_idx=0)
      (f_61): Embedding(826, 1, padding_idx=0)
      (f_79): Embedding(8, 1, padding_idx=0)
      (f_72): Embedding(12, 1, padding_idx=0)
      (f_58): DenseEmbedding(
        embedding_dim=1, bias=False, batch_norm=True
        (batch_norm_layer): BatchNorm1d(1, eps=1e-05, momentum=0.1, affine=True, track_running_stats=True)
        (weight): Linear(in_features=1, out_features=1, bias=False)
      )
      (f_3): Embedding(6, 1, padding_idx=0)
      (f_50): Embedding(35, 1, padding_idx=0)
      (f_74): Embedding(5, 1, padding_idx=0)
      (f_60): Embedding(403, 1, padding_idx=0)
      (f_62): Embedding(1397, 1, padding_idx=0)
      (f_6): Embedding(5235, 1, padding_idx=0)
      (f_36): Embedding(3, 1, padding_idx=0)
      (f_65): DenseEmbedding(
        embedding_dim=1, bias=False, batch_norm=True
        (batch_norm_layer): BatchNorm1d(1, eps=1e-05, momentum=0.1, affine=True, track_running_stats=True)
        (weight): Linear(in_features=1, out_features=1, bias=False)
      )
      (f_2): Embedding(140, 1, padding_idx=0)
      (f_11): Embedding(25, 1, padding_idx=0)
      (f_59): DenseEmbedding(
        embedding_dim=1, bias=False, batch_norm=True
        (batch_norm_layer): BatchNorm1d(1, eps=1e-05, momentum=0.1, affine=True, track_running_stats=True)
        (weight): Linear(in_features=1, out_features=1, bias=False)
      )
      (f_73): Embedding(9, 1, padding_idx=0)
      (f_26): Embedding(3, 1, padding_idx=0)
      (f_43): DenseEmbedding(
        embedding_dim=1, bias=False, batch_norm=True
        (batch_norm_layer): BatchNorm1d(1, eps=1e-05, momentum=0.1, affine=True, track_running_stats=True)
        (weight): Linear(in_features=1, out_features=1, bias=False)
      )
      (f_49): Embedding(21, 1, padding_idx=0)
      (f_56): Embedding(221, 1, padding_idx=0)
      (f_41): Embedding(3, 1, padding_idx=0)
      (f_77): Embedding(5, 1, padding_idx=0)
      (f_76): Embedding(9, 1, padding_idx=0)
      (f_45): Embedding(24, 1, padding_idx=0)
      (f_47): Embedding(28, 1, padding_idx=0)
      (f_40): Embedding(3, 1, padding_idx=0)
      (f_4): Embedding(639, 1, padding_idx=0)
      (f_39): Embedding(3, 1, padding_idx=0)
      (f_32): Embedding(5, 1, padding_idx=0)
      (f_8): Embedding(7, 1, padding_idx=0)
      (f_52): Embedding(172, 1, padding_idx=0)
      (f_66): DenseEmbedding(
        embedding_dim=1, bias=False, batch_norm=True
        (batch_norm_layer): BatchNorm1d(1, eps=1e-05, momentum=0.1, affine=True, track_running_stats=True)
        (weight): Linear(in_features=1, out_features=1, bias=False)
      )
      (f_14): Embedding(20, 1, padding_idx=0)
      (f_13): Embedding(332, 1, padding_idx=0)
      (f_69): DenseEmbedding(
        embedding_dim=1, bias=False, batch_norm=True
        (batch_norm_layer): BatchNorm1d(1, eps=1e-05, momentum=0.1, affine=True, track_running_stats=True)
        (weight): Linear(in_features=1, out_features=1, bias=False)
      )
      (f_1): DenseEmbedding(
        embedding_dim=1, bias=False, batch_norm=True
        (batch_norm_layer): BatchNorm1d(1, eps=1e-05, momentum=0.1, affine=True, track_running_stats=True)
        (weight): Linear(in_features=1, out_features=1, bias=False)
      )
      (f_10): Embedding(4, 1, padding_idx=0)
      (f_16): Embedding(13, 1, padding_idx=0)
      (f_38): Embedding(3, 1, padding_idx=0)
      (f_12): Embedding(27, 1, padding_idx=0)
      (f_37): Embedding(3, 1, padding_idx=0)
      (f_24): Embedding(5, 1, padding_idx=0)
      (f_19): Embedding(20, 1, padding_idx=0)
      (f_55): Embedding(390, 1, padding_idx=0)
      (f_20): Embedding(58, 1, padding_idx=0)
      (f_44): Embedding(22, 1, padding_idx=0)
      (f_42): Embedding(8883, 1, padding_idx=0)
      (f_48): Embedding(28, 1, padding_idx=0)
      (f_64): DenseEmbedding(
        embedding_dim=1, bias=False, batch_norm=True
        (batch_norm_layer): BatchNorm1d(1, eps=1e-05, momentum=0.1, affine=True, track_running_stats=True)
        (weight): Linear(in_features=1, out_features=1, bias=False)
      )
      (f_23): Embedding(5, 1, padding_idx=0)
      (f_54): Embedding(213, 1, padding_idx=0)
      (f_46): Embedding(12, 1, padding_idx=0)
      (f_75): Embedding(32, 1, padding_idx=0)
      (f_34): Embedding(3, 1, padding_idx=0)
      (f_35): Embedding(3, 1, padding_idx=0)
      (f_21): Embedding(36, 1, padding_idx=0)
      (f_51): Embedding(1829, 1, padding_idx=0)
      (f_57): Embedding(517, 1, padding_idx=0)
      (f_63): Embedding(408, 1, padding_idx=0)
      (f_15): Embedding(5855, 1, padding_idx=0)
      (f_68): DenseEmbedding(
        embedding_dim=1, bias=False, batch_norm=True
        (batch_norm_layer): BatchNorm1d(1, eps=1e-05, momentum=0.1, affine=True, track_running_stats=True)
        (weight): Linear(in_features=1, out_features=1, bias=False)
      )
      (f_71): Embedding(5, 1, padding_idx=0)
      (f_70): DenseEmbedding(
        embedding_dim=1, bias=False, batch_norm=True
        (batch_norm_layer): BatchNorm1d(1, eps=1e-05, momentum=0.1, affine=True, track_running_stats=True)
        (weight): Linear(in_features=1, out_features=1, bias=False)
      )
      (f_17): Embedding(50, 1, padding_idx=0)
      (f_22): Embedding(27, 1, padding_idx=0)
      (f_78): Embedding(14, 1, padding_idx=0)
    )
  )
)
[2023-06-17 20:14:22] INFO GPU id [0] are selected.
[2023-06-17 20:17:40] INFO Training: Epoch=  0 [logloss=0.4230 accuracy=0.8173 f1=0.2544 precision=0.5407 recall=0.1665 auc=0.7971 train_loss_0=0.3197]
[2023-06-17 20:17:40] INFO Train time: 182.72872s. Valid time: 0.45049s. GPU RAM: 0.31/10.76 GB
[2023-06-17 20:17:40] INFO logloss improved. Best value: 0.4230
[2023-06-17 20:20:49] INFO Training: Epoch=  1 [logloss=0.4087 accuracy=0.8160 f1=0.3020 precision=0.5227 recall=0.2126 auc=0.8018 train_loss_0=0.2638]
…
