…
	dropout=0
	batch_norm=False
train:
	accelerator=gpu
	ann=None
	batch_size=512
	early_stop_mode=min
	early_stop_patience=10
	epochs=1000
	gpu=[2]
	grad_clip_norm=None
	init_method=xavier_normal
	item_batch_size=1024
	learner=adam
	learning_rate=0.001
	num_threads=10
	sampling_method=none
	sampler=uniform
	negative_count=0
	excluding_hist=False
	scheduler=None
	seed=2022
	weight_decay=0.0
	tensorboard_path=None
[2023-06-17 20:49:39] INFO save_dir:./saved/
[2023-06-17 20:49:39] INFO IFM(
  (loss_fn): BCEWithLogitLoss()
  (linear): LinearLayer(
    bias=True
    (embeddings): ModuleDict(
      (f_79): Embedding(8, 1, padding_idx=0)
      (f_61): Embedding(826, 1, padding_idx=0)
      (f_9): Embedding(8, 1, padding_idx=0)
      (f_24): Embedding(5, 1, padding_idx=0)
      (f_38): Embedding(3, 1, padding_idx=0)
      (f_63): Embedding(408, 1, padding_idx=0)
      (f_56): Embedding(221, 1, padding_idx=0)
      (f_48): Embedding(28, 1, padding_idx=0)
      (f_46): Embedding(12, 1, padding_idx=0)
      (f_41): Embedding(3, 1, padding_idx=0)
      (f_1): DenseEmbedding(
        embedding_dim=1, bias=False, batch_norm=True
        (batch_norm_layer): BatchNorm1d(1, eps=1e-05, momentum=0.1, affine=True, track_running_stats=True)
        (weight): Linear(in_features=1, out_features=1, bias=False)
      )
      (f_5): Embedding(7, 1, padding_idx=0)
      (f_22): Embedding(27, 1, padding_idx=0)
      (f_31): Embedding(3, 1, padding_idx=0)
      (f_52): Embedding(172, 1, padding_idx=0)
      (f_12): Embedding(27, 1, padding_idx=0)
      (f_68): DenseEmbedding(
        embedding_dim=1, bias=False, batch_norm=True
        (batch_norm_layer): BatchNorm1d(1, eps=1e-05, momentum=0.1, affine=True, track_running_stats=True)
        (weight): Linear(in_features=1, out_features=1, bias=False)
      )
      (f_73): Embedding(9, 1, padding_idx=0)
      (f_11): Embedding(25, 1, padding_idx=0)
      (f_64): DenseEmbedding(
        embedding_dim=1, bias=False, batch_norm=True
        (batch_norm_layer): BatchNorm1d(1, eps=1e-05, momentum=0.1, affine=True, track_running_stats=True)
        (weight): Linear(in_features=1, out_features=1, bias=False)
      )
      (f_21): Embedding(36, 1, padding_idx=0)
      (f_71): Embedding(5, 1, padding_idx=0)
      (f_53): Embedding(103, 1, padding_idx=0)
      (f_34): Embedding(3, 1, padding_idx=0)
      (f_19): Embedding(20, 1, padding_idx=0)
      (f_60): Embedding(403, 1, padding_idx=0)
      (f_14): Embedding(20, 1, padding_idx=0)
      (f_16): Embedding(13, 1, padding_idx=0)
      (f_4): Embedding(639, 1, padding_idx=0)
      (f_50): Embedding(35, 1, padding_idx=0)
      (f_43): DenseEmbedding(
        embedding_dim=1, bias=False, batch_norm=True
        (batch_norm_layer): BatchNorm1d(1, eps=1e-05, momentum=0.1, affine=True, track_running_stats=True)
        (weight): Linear(in_features=1, out_features=1, bias=False)
      )
      (f_23): Embedding(5, 1, padding_idx=0)
      (f_75): Embedding(32, 1, padding_idx=0)
      (f_13): Embedding(332, 1, padding_idx=0)
      (f_32): Embedding(5, 1, padding_idx=0)
      (f_62): Embedding(1397, 1, padding_idx=0)
      (f_54): Embedding(213, 1, padding_idx=0)
      (f_70): DenseEmbedding(
        embedding_dim=1, bias=False, batch_norm=True
        (batch_norm_layer): BatchNorm1d(1, eps=1e-05, momentum=0.1, affine=True, track_running_stats=True)
        (weight): Linear(in_features=1, out_features=1, bias=False)
      )
      (f_42): Embedding(8883, 1, padding_idx=0)
      (f_18): Embedding(925, 1, padding_idx=0)
      (f_37): Embedding(3, 1, padding_idx=0)
      (f_58): DenseEmbedding(
        embedding_dim=1, bias=False, batch_norm=True
        (batch_norm_layer): BatchNorm1d(1, eps=1e-05, momentum=0.1, affine=True, track_running_stats=True)
        (weight): Linear(in_features=1, out_features=1, bias=False)
      )
      (f_69): DenseEmbedding(
        embedding_dim=1, bias=False, batch_norm=True
        (batch_norm_layer): BatchNorm1d(1, eps=1e-05, momentum=0.1, affine=True, track_running_stats=True)
        (weight): Linear(in_features=1, out_features=1, bias=False)
      )
      (f_40): Embedding(3, 1, padding_idx=0)
      (f_59): DenseEmbedding(
        embedding_dim=1, bias=False, batch_norm=True
        (batch_norm_layer): BatchNorm1d(1, eps=1e-05, momentum=0.1, affine=True, track_running_stats=True)
        (weight): Linear(in_features=1, out_features=1, bias=False)
      )
      (f_33): Embedding(3, 1, padding_idx=0)
      (f_2): Embedding(140, 1, padding_idx=0)
      (f_10): Embedding(4, 1, padding_idx=0)
      (f_78): Embedding(14, 1, padding_idx=0)
      (f_39): Embedding(3, 1, padding_idx=0)
      (f_67): DenseEmbedding(
        embedding_dim=1, bias=False, batch_norm=True
        (batch_norm_layer): BatchNorm1d(1, eps=1e-05, momentum=0.1, affine=True, track_running_stats=True)
        (weight): Linear(in_features=1, out_features=1, bias=False)
      )
      (f_72): Embedding(12, 1, padding_idx=0)
      (f_57): Embedding(517, 1, padding_idx=0)
      (f_44): Embedding(22, 1, padding_idx=0)
      (f_6): Embedding(5235, 1, padding_idx=0)
      (f_8): Embedding(7, 1, padding_idx=0)
      (f_74): Embedding(5, 1, padding_idx=0)
      (f_30): Embedding(3, 1, padding_idx=0)
      (f_17): Embedding(50, 1, padding_idx=0)
      (f_35): Embedding(3, 1, padding_idx=0)
      (f_77): Embedding(5, 1, padding_idx=0)
      (f_47): Embedding(28, 1, padding_idx=0)
      (f_36): Embedding(3, 1, padding_idx=0)
      (f_45): Embedding(24, 1, padding_idx=0)
      (f_15): Embedding(5855, 1, padding_idx=0)
      (f_51): Embedding(1829, 1, padding_idx=0)
      (f_66): DenseEmbedding(
        embedding_dim=1, bias=False, batch_norm=True
        (batch_norm_layer): BatchNorm1d(1, eps=1e-05, momentum=0.1, affine=True, track_running_stats=True)
        (weight): Linear(in_features=1, out_features=1, bias=False)
      )
      (f_26): Embedding(3, 1, padding_idx=0)
      (f_20): Embedding(58, 1, padding_idx=0)
      (f_65): DenseEmbedding(
        embedding_dim=1, bias=False, batch_norm=True
        (batch_norm_layer): BatchNorm1d(1, eps=1e-05, momentum=0.1, affine=True, track_running_stats=True)
        (weight): Linear(in_features=1, out_features=1, bias=False)
      )
      (f_49): Embedding(21, 1, padding_idx=0)
      (f_25): Embedding(4, 1, padding_idx=0)
      (f_3): Embedding(6, 1, padding_idx=0)
      (f_55): Embedding(390, 1, padding_idx=0)
      (f_76): Embedding(9, 1, padding_idx=0)
    )
  )
  (embedding): Embeddings(
    num_features=75, embed_dim=64, reduction=mean
    (embeddings): ModuleDict(
      (f_79): Embedding(8, 64, padding_idx=0)
      (f_61): Embedding(826, 64, padding_idx=0)
      (f_9): Embedding(8, 64, padding_idx=0)
      (f_24): Embedding(5, 64, padding_idx=0)
      (f_38): Embedding(3, 64, padding_idx=0)
      (f_63): Embedding(408, 64, padding_idx=0)
      (f_56): Embedding(221, 64, padding_idx=0)
      (f_48): Embedding(28, 64, padding_idx=0)
      (f_46): Embedding(12, 64, padding_idx=0)
      (f_41): Embedding(3, 64, padding_idx=0)
      (f_1): DenseEmbedding(
        embedding_dim=64, bias=False, batch_norm=True
        (batch_norm_layer): BatchNorm1d(1, eps=1e-05, momentum=0.1, affine=True, track_running_stats=True)
        (weight): Linear(in_features=1, out_features=64, bias=False)
      )
      (f_5): Embedding(7, 64, padding_idx=0)
      (f_22): Embedding(27, 64, padding_idx=0)
      (f_31): Embedding(3, 64, padding_idx=0)
      (f_52): Embedding(172, 64, padding_idx=0)
      (f_12): Embedding(27, 64, padding_idx=0)
      (f_68): DenseEmbedding(
        embedding_dim=64, bias=False, batch_norm=True
        (batch_norm_layer): BatchNorm1d(1, eps=1e-05, momentum=0.1, affine=True, track_running_stats=True)
        (weight): Linear(in_features=1, out_features=64, bias=False)
      )
      (f_73): Embedding(9, 64, padding_idx=0)
      (f_11): Embedding(25, 64, padding_idx=0)
      (f_64): DenseEmbedding(
        embedding_dim=64, bias=False, batch_norm=True
        (batch_norm_layer): BatchNorm1d(1, eps=1e-05, momentum=0.1, affine=True, track_running_stats=True)
        (weight): Linear(in_features=1, out_features=64, bias=False)
      )
      (f_21): Embedding(36, 64, padding_idx=0)
      (f_71): Embedding(5, 64, padding_idx=0)
      (f_53): Embedding(103, 64, padding_idx=0)
      (f_34): Embedding(3, 64, padding_idx=0)
      (f_19): Embedding(20, 64, padding_idx=0)
      (f_60): Embedding(403, 64, padding_idx=0)
      (f_14): Embedding(20, 64, padding_idx=0)
      (f_16): Embedding(13, 64, padding_idx=0)
      (f_4): Embedding(639, 64, padding_idx=0)
      (f_50): Embedding(35, 64, padding_idx=0)
      (f_43): DenseEmbedding(
        embedding_dim=64, bias=False, batch_norm=True
        (batch_norm_layer): BatchNorm1d(1, eps=1e-05, momentum=0.1, affine=True, track_running_stats=True)
        (weight): Linear(in_features=1, out_features=64, bias=False)
      )
      (f_23): Embedding(5, 64, padding_idx=0)
      (f_75): Embedding(32, 64, padding_idx=0)
      (f_13): Embedding(332, 64, padding_idx=0)
      (f_32): Embedding(5, 64, padding_idx=0)
      (f_62): Embedding(1397, 64, padding_idx=0)
      (f_54): Embedding(213, 64, padding_idx=0)
      (f_70): DenseEmbedding(
        embedding_dim=64, bias=False, batch_norm=True
        (batch_norm_layer): BatchNorm1d(1, eps=1e-05, momentum=0.1, affine=True, track_running_stats=True)
        (weight): Linear(in_features=1, out_features=64, bias=False)
      )
      (f_42): Embedding(8883, 64, padding_idx=0)
      (f_18): Embedding(925, 64, padding_idx=0)
      (f_37): Embedding(3, 64, padding_idx=0)
      (f_58): DenseEmbedding(
        embedding_dim=64, bias=False, batch_norm=True
        (batch_norm_layer): BatchNorm1d(1, eps=1e-05, momentum=0.1, affine=True, track_running_stats=True)
        (weight): Linear(in_features=1, out_features=64, bias=False)
      )
      (f_69): DenseEmbedding(
        embedding_dim=64, bias=False, batch_norm=True
        (batch_norm_layer): BatchNorm1d(1, eps=1e-05, momentum=0.1, affine=True, track_running_stats=True)
        (weight): Linear(in_features=1, out_features=64, bias=False)
      )
      (f_40): Embedding(3, 64, padding_idx=0)
      (f_59): DenseEmbedding(
        embedding_dim=64, bias=False, batch_norm=True
        (batch_norm_layer): BatchNorm1d(1, eps=1e-05, momentum=0.1, affine=True, track_running_stats=True)
        (weight): Linear(in_features=1, out_features=64, bias=False)
      )
      (f_33): Embedding(3, 64, padding_idx=0)
      (f_2): Embedding(140, 64, padding_idx=0)
      (f_10): Embedding(4, 64, padding_idx=0)
      (f_78): Embedding(14, 64, padding_idx=0)
      (f_39): Embedding(3, 64, padding_idx=0)
      (f_67): DenseEmbedding(
        embedding_dim=64, bias=False, batch_norm=True
        (batch_norm_layer): BatchNorm1d(1, eps=1e-05, momentum=0.1, affine=True, track_running_stats=True)
        (weight): Linear(in_features=1, out_features=64, bias=False)
      )
      (f_72): Embedding(12, 64, padding_idx=0)
      (f_57): Embedding(517, 64, padding_idx=0)
      (f_44): Embedding(22, 64, padding_idx=0)
      (f_6): Embedding(5235, 64, padding_idx=0)
      (f_8): Embedding(7, 64, padding_idx=0)
      (f_74): Embedding(5, 64, padding_idx=0)
      (f_30): Embedding(3, 64, padding_idx=0)
      (f_17): Embedding(50, 64, padding_idx=0)
      (f_35): Embedding(3, 64, padding_idx=0)
      (f_77): Embedding(5, 64, padding_idx=0)
      (f_47): Embedding(28, 64, padding_idx=0)
      (f_36): Embedding(3, 64, padding_idx=0)
      (f_45): Embedding(24, 64, padding_idx=0)
      (f_15): Embedding(5855, 64, padding_idx=0)
      (f_51): Embedding(1829, 64, padding_idx=0)
      (f_66): DenseEmbedding(
        embedding_dim=64, bias=False, batch_norm=True
        (batch_norm_layer): BatchNorm1d(1, eps=1e-05, momentum=0.1, affine=True, track_running_stats=True)
        (weight): Linear(in_features=1, out_features=64, bias=False)
      )
      (f_26): Embedding(3, 64, padding_idx=0)
      (f_20): Embedding(58, 64, padding_idx=0)
      (f_65): DenseEmbedding(
        embedding_dim=64, bias=False, batch_norm=True
        (batch_norm_layer): BatchNorm1d(1, eps=1e-05, momentum=0.1, affine=True, track_running_stats=True)
        (weight): Linear(in_features=1, out_features=64, bias=False)
      )
      (f_49): Embedding(21, 64, padding_idx=0)
      (f_25): Embedding(4, 64, padding_idx=0)
      (f_3): Embedding(6, 64, padding_idx=0)
      (f_55): Embedding(390, 64, padding_idx=0)
      (f_76): Embedding(9, 64, padding_idx=0)
    )
  )
  (fen): MLPModule(
    (model): Sequential(
      (0): Dropout(p=0, inplace=False)
      (1): Linear(in_features=4800, out_features=256, bias=True)
      (2): ReLU()
      (3): Dropout(p=0, inplace=False)
      (4): Linear(in_features=256, out_features=256, bias=True)
      (5): ReLU()
      (6): Dropout(p=0, inplace=False)
      (7): Linear(in_features=256, out_features=256, bias=True)
      (8): ReLU()
      (9): Linear(in_features=256, out_features=75, bias=False)
      (10): Softmax(dim=-1)
    )
  )
  (fm): FMLayer(reduction=sum)
)
[2023-06-17 20:49:39] INFO GPU id [2] are selected.
[2023-06-17 20:56:01] INFO Training: Epoch=  0 [logloss=0.3722 accuracy=0.8259 f1=0.2767 precision=0.6249 recall=0.1778 auc=0.8247 train_loss_0=0.2803]
[2023-06-17 20:56:01] INFO Train time: 378.43965s. Valid time: 1.79948s. GPU RAM: 0.43/10.76 GB
…
