…
	early_stop_mode=min
	early_stop_patience=10
	epochs=1000
	gpu=[1]
	grad_clip_norm=None
	init_method=xavier_normal
	item_batch_size=1024
	learner=adam
	learning_rate=0.001
	num_threads=10
	sampling_method=none
	sampler=uniform
	negative_count=0
	excluding_hist=False
	scheduler=None
	seed=2022
	weight_decay=1e-06
	tensorboard_path=None
[2023-06-17 20:44:48] INFO save_dir:./saved/
[2023-06-17 20:44:48] INFO DeepCrossing(
  (loss_fn): BCEWithLogitLoss()
  (dc): Sequential(
    (embedding): Embeddings(
      num_features=75, embed_dim=64, reduction=mean
      (embeddings): ModuleDict(
        (f_57): Embedding(517, 64, padding_idx=0)
        (f_74): Embedding(5, 64, padding_idx=0)
        (f_56): Embedding(221, 64, padding_idx=0)
        (f_5): Embedding(7, 64, padding_idx=0)
        (f_62): Embedding(1397, 64, padding_idx=0)
        (f_76): Embedding(9, 64, padding_idx=0)
        (f_13): Embedding(332, 64, padding_idx=0)
        (f_63): Embedding(408, 64, padding_idx=0)
        (f_69): DenseEmbedding(
          embedding_dim=64, bias=False, batch_norm=True
          (batch_norm_layer): BatchNorm1d(1, eps=1e-05, momentum=0.1, affine=True, track_running_stats=True)
          (weight): Linear(in_features=1, out_features=64, bias=False)
        )
        (f_46): Embedding(12, 64, padding_idx=0)
        (f_4): Embedding(639, 64, padding_idx=0)
        (f_19): Embedding(20, 64, padding_idx=0)
        (f_49): Embedding(21, 64, padding_idx=0)
        (f_66): DenseEmbedding(
          embedding_dim=64, bias=False, batch_norm=True
          (batch_norm_layer): BatchNorm1d(1, eps=1e-05, momentum=0.1, affine=True, track_running_stats=True)
          (weight): Linear(in_features=1, out_features=64, bias=False)
        )
        (f_51): Embedding(1829, 64, padding_idx=0)
        (f_73): Embedding(9, 64, padding_idx=0)
        (f_24): Embedding(5, 64, padding_idx=0)
        (f_20): Embedding(58, 64, padding_idx=0)
        (f_23): Embedding(5, 64, padding_idx=0)
        (f_43): DenseEmbedding(
          embedding_dim=64, bias=False, batch_norm=True
          (batch_norm_layer): BatchNorm1d(1, eps=1e-05, momentum=0.1, affine=True, track_running_stats=True)
          (weight): Linear(in_features=1, out_features=64, bias=False)
        )
        (f_54): Embedding(213, 64, padding_idx=0)
        (f_3): Embedding(6, 64, padding_idx=0)
        (f_18): Embedding(925, 64, padding_idx=0)
        (f_78): Embedding(14, 64, padding_idx=0)
        (f_22): Embedding(27, 64, padding_idx=0)
        (f_14): Embedding(20, 64, padding_idx=0)
        (f_45): Embedding(24, 64, padding_idx=0)
        (f_59): DenseEmbedding(
          embedding_dim=64, bias=False, batch_norm=True
          (batch_norm_layer): BatchNorm1d(1, eps=1e-05, momentum=0.1, affine=True, track_running_stats=True)
          (weight): Linear(in_features=1, out_features=64, bias=False)
        )
        (f_21): Embedding(36, 64, padding_idx=0)
        (f_8): Embedding(7, 64, padding_idx=0)
        (f_2): Embedding(140, 64, padding_idx=0)
        (f_39): Embedding(3, 64, padding_idx=0)
        (f_40): Embedding(3, 64, padding_idx=0)
        (f_79): Embedding(8, 64, padding_idx=0)
        (f_58): DenseEmbedding(
          embedding_dim=64, bias=False, batch_norm=True
          (batch_norm_layer): BatchNorm1d(1, eps=1e-05, momentum=0.1, affine=True, track_running_stats=True)
          (weight): Linear(in_features=1, out_features=64, bias=False)
        )
        (f_11): Embedding(25, 64, padding_idx=0)
        (f_61): Embedding(826, 64, padding_idx=0)
        (f_65): DenseEmbedding(
          embedding_dim=64, bias=False, batch_norm=True
          (batch_norm_layer): BatchNorm1d(1, eps=1e-05, momentum=0.1, affine=True, track_running_stats=True)
          (weight): Linear(in_features=1, out_features=64, bias=False)
        )
        (f_34): Embedding(3, 64, padding_idx=0)
        (f_64): DenseEmbedding(
          embedding_dim=64, bias=False, batch_norm=True
          (batch_norm_layer): BatchNorm1d(1, eps=1e-05, momentum=0.1, affine=True, track_running_stats=True)
          (weight): Linear(in_features=1, out_features=64, bias=False)
        )
        (f_17): Embedding(50, 64, padding_idx=0)
        (f_26): Embedding(3, 64, padding_idx=0)
        (f_42): Embedding(8883, 64, padding_idx=0)
        (f_71): Embedding(5, 64, padding_idx=0)
        (f_47): Embedding(28, 64, padding_idx=0)
        (f_35): Embedding(3, 64, padding_idx=0)
        (f_36): Embedding(3, 64, padding_idx=0)
        (f_50): Embedding(35, 64, padding_idx=0)
        (f_1): DenseEmbedding(
          embedding_dim=64, bias=False, batch_norm=True
          (batch_norm_layer): BatchNorm1d(1, eps=1e-05, momentum=0.1, affine=True, track_running_stats=True)
          (weight): Linear(in_features=1, out_features=64, bias=False)
        )
        (f_53): Embedding(103, 64, padding_idx=0)
        (f_25): Embedding(4, 64, padding_idx=0)
        (f_9): Embedding(8, 64, padding_idx=0)
        (f_77): Embedding(5, 64, padding_idx=0)
        (f_6): Embedding(5235, 64, padding_idx=0)
        (f_68): DenseEmbedding(
          embedding_dim=64, bias=False, batch_norm=True
          (batch_norm_layer): BatchNorm1d(1, eps=1e-05, momentum=0.1, affine=True, track_running_stats=True)
          (weight): Linear(in_features=1, out_features=64, bias=False)
        )
        (f_38): Embedding(3, 64, padding_idx=0)
        (f_12): Embedding(27, 64, padding_idx=0)
        (f_16): Embedding(13, 64, padding_idx=0)
        (f_33): Embedding(3, 64, padding_idx=0)
        (f_75): Embedding(32, 64, padding_idx=0)
        (f_31): Embedding(3, 64, padding_idx=0)
        (f_72): Embedding(12, 64, padding_idx=0)
        (f_67): DenseEmbedding(
          embedding_dim=64, bias=False, batch_norm=True
          (batch_norm_layer): BatchNorm1d(1, eps=1e-05, momentum=0.1, affine=True, track_running_stats=True)
          (weight): Linear(in_features=1, out_features=64, bias=False)
        )
        (f_10): Embedding(4, 64, padding_idx=0)
        (f_15): Embedding(5855, 64, padding_idx=0)
        (f_55): Embedding(390, 64, padding_idx=0)
        (f_41): Embedding(3, 64, padding_idx=0)
        (f_52): Embedding(172, 64, padding_idx=0)
        (f_60): Embedding(403, 64, padding_idx=0)
        (f_30): Embedding(3, 64, padding_idx=0)
        (f_32): Embedding(5, 64, padding_idx=0)
        (f_70): DenseEmbedding(
          embedding_dim=64, bias=False, batch_norm=True
          (batch_norm_layer): BatchNorm1d(1, eps=1e-05, momentum=0.1, affine=True, track_running_stats=True)
          (weight): Linear(in_features=1, out_features=64, bias=False)
        )
        (f_37): Embedding(3, 64, padding_idx=0)
        (f_44): Embedding(22, 64, padding_idx=0)
        (f_48): Embedding(28, 64, padding_idx=0)
      )
    )
    (residuals): Sequential(
      (0): ResidualLayer(
        (module): MLPModule(
          (model): Sequential(
            (0): Dropout(p=0.0, inplace=False)
            (1): Linear(in_features=4800, out_features=256, bias=True)
            (2): ReLU()
            (3): Dropout(p=0.0, inplace=False)
            (4): Linear(in_features=256, out_features=4800, bias=True)
          )
        )
        (bn): BatchNorm1d(75, eps=1e-05, momentum=0.1, affine=True, track_running_stats=True)
        (activation): ReLU()
        (dropout): Dropout(p=0.5, inplace=False)
      )
      (1): ResidualLayer(
        (module): MLPModule(
          (model): Sequential(
            (0): Dropout(p=0.0, inplace=False)
            (1): Linear(in_features=4800, out_features=256, bias=True)
            (2): ReLU()
            (3): Dropout(p=0.0, inplace=False)
            (4): Linear(in_features=256, out_features=4800, bias=True)
          )
        )
        (bn): BatchNorm1d(75, eps=1e-05, momentum=0.1, affine=True, track_running_stats=True)
        (activation): ReLU()
        (dropout): Dropout(p=0.5, inplace=False)
      )
      (2): ResidualLayer(
        (module): MLPModule(
          (model): Sequential(
            (0): Dropout(p=0.0, inplace=False)
            (1): Linear(in_features=4800, out_features=256, bias=True)
            (2): ReLU()
            (3): Dropout(p=0.0, inplace=False)
            (4): Linear(in_features=256, out_features=4800, bias=True)
          )
        )
        (bn): BatchNorm1d(75, eps=1e-05, momentum=0.1, affine=True, track_running_stats=True)
        (activation): ReLU()
        (dropout): Dropout(p=0.5, inplace=False)
      )
    )
  )
  (fc): Linear(in_features=4800, out_features=1, bias=True)
)
[2023-06-17 20:44:48] INFO GPU id [1] are selected.
[2023-06-17 20:47:32] INFO Training: Epoch=  0 [logloss=0.3860 accuracy=0.8204 f1=0.2736 precision=0.5648 recall=0.1807 auc=0.8127 train_loss_0=0.2727]
[2023-06-17 20:47:32] INFO Train time: 161.82801s. Valid time: 0.47742s. GPU RAM: 0.66/10.76 GB
[2023-06-17 20:47:32] INFO logloss improved. Best value: 0.3860
…
