…
	grad_clip_norm=None
	init_method=xavier_normal
	item_batch_size=1024
	learner=adam
	learning_rate=0.001
	num_threads=10
	sampling_method=none
	sampler=uniform
	negative_count=0
	excluding_hist=False
	scheduler=exponential
	seed=2022
	weight_decay=3e-05
	tensorboard_path=None
[2023-06-21 00:28:34] INFO save_dir:./saved/
[2023-06-21 00:28:34] INFO DCNv2(
  (loss_fn): BCEWithLogitLoss()
  (embedding): Embeddings(
    num_features=76, embed_dim=70, reduction=mean
    (embeddings): ModuleDict(
      (f_68): DenseEmbedding(
        embedding_dim=70, bias=False, batch_norm=True
        (batch_norm_layer): BatchNorm1d(1, eps=1e-05, momentum=0.1, affine=True, track_running_stats=True)
        (weight): Linear(in_features=1, out_features=70, bias=False)
      )
      (f_38): Embedding(3, 70, padding_idx=0)
      (f_43): DenseEmbedding(
        embedding_dim=70, bias=False, batch_norm=True
        (batch_norm_layer): BatchNorm1d(1, eps=1e-05, momentum=0.1, affine=True, track_running_stats=True)
        (weight): Linear(in_features=1, out_features=70, bias=False)
      )
      (f_35): Embedding(3, 70, padding_idx=0)
      (f_23): Embedding(5, 70, padding_idx=0)
      (f_42): Embedding(8883, 70, padding_idx=0)
      (f_5): Embedding(7, 70, padding_idx=0)
      (f_71): Embedding(5, 70, padding_idx=0)
      (f_3): Embedding(6, 70, padding_idx=0)
      (f_79): Embedding(8, 70, padding_idx=0)
      (f_65): DenseEmbedding(
        embedding_dim=70, bias=False, batch_norm=True
        (batch_norm_layer): BatchNorm1d(1, eps=1e-05, momentum=0.1, affine=True, track_running_stats=True)
        (weight): Linear(in_features=1, out_features=70, bias=False)
      )
      (f_49): Embedding(21, 70, padding_idx=0)
      (f_25): Embedding(4, 70, padding_idx=0)
      (f_34): Embedding(3, 70, padding_idx=0)
      (f_50): Embedding(35, 70, padding_idx=0)
      (f_6): Embedding(5235, 70, padding_idx=0)
      (f_66): DenseEmbedding(
        embedding_dim=70, bias=False, batch_norm=True
        (batch_norm_layer): BatchNorm1d(1, eps=1e-05, momentum=0.1, affine=True, track_running_stats=True)
        (weight): Linear(in_features=1, out_features=70, bias=False)
      )
      (f_15): Embedding(5855, 70, padding_idx=0)
      (f_56): Embedding(221, 70, padding_idx=0)
      (f_51): Embedding(1829, 70, padding_idx=0)
      (f_73): Embedding(9, 70, padding_idx=0)
      (f_8): Embedding(7, 70, padding_idx=0)
      (f_36): Embedding(3, 70, padding_idx=0)
      (f_52): Embedding(172, 70, padding_idx=0)
      (f_30): Embedding(3, 70, padding_idx=0)
      (f_12): Embedding(27, 70, padding_idx=0)
      (f_26): Embedding(3, 70, padding_idx=0)
      (f_19): Embedding(20, 70, padding_idx=0)
      (f_59): DenseEmbedding(
        embedding_dim=70, bias=False, batch_norm=True
        (batch_norm_layer): BatchNorm1d(1, eps=1e-05, momentum=0.1, affine=True, track_running_stats=True)
        (weight): Linear(in_features=1, out_features=70, bias=False)
      )
      (f_69): DenseEmbedding(
        embedding_dim=70, bias=False, batch_norm=True
        (batch_norm_layer): BatchNorm1d(1, eps=1e-05, momentum=0.1, affine=True, track_running_stats=True)
        (weight): Linear(in_features=1, out_features=70, bias=False)
      )
      (f_17): Embedding(50, 70, padding_idx=0)
      (f_74): Embedding(5, 70, padding_idx=0)
      (f_33): Embedding(3, 70, padding_idx=0)
      (f_10): Embedding(4, 70, padding_idx=0)
      (f_67): DenseEmbedding(
        embedding_dim=70, bias=False, batch_norm=True
        (batch_norm_layer): BatchNorm1d(1, eps=1e-05, momentum=0.1, affine=True, track_running_stats=True)
        (weight): Linear(in_features=1, out_features=70, bias=False)
      )
      (f_75): Embedding(32, 70, padding_idx=0)
      (f_11): Embedding(25, 70, padding_idx=0)
      (f_21): Embedding(36, 70, padding_idx=0)
      (f_20): Embedding(58, 70, padding_idx=0)
      (f_40): Embedding(3, 70, padding_idx=0)
      (weekday): Embedding(8, 70, padding_idx=0)
      (f_14): Embedding(20, 70, padding_idx=0)
      (f_39): Embedding(3, 70, padding_idx=0)
      (f_60): Embedding(403, 70, padding_idx=0)
      (f_48): Embedding(28, 70, padding_idx=0)
      (f_57): Embedding(517, 70, padding_idx=0)
      (f_70): DenseEmbedding(
        embedding_dim=70, bias=False, batch_norm=True
        (batch_norm_layer): BatchNorm1d(1, eps=1e-05, momentum=0.1, affine=True, track_running_stats=True)
        (weight): Linear(in_features=1, out_features=70, bias=False)
      )
      (f_45): Embedding(24, 70, padding_idx=0)
      (f_32): Embedding(5, 70, padding_idx=0)
      (f_47): Embedding(28, 70, padding_idx=0)
      (f_53): Embedding(103, 70, padding_idx=0)
      (f_76): Embedding(9, 70, padding_idx=0)
      (f_41): Embedding(3, 70, padding_idx=0)
      (f_63): Embedding(408, 70, padding_idx=0)
      (f_13): Embedding(332, 70, padding_idx=0)
      (f_2): Embedding(140, 70, padding_idx=0)
      (f_37): Embedding(3, 70, padding_idx=0)
      (f_46): Embedding(12, 70, padding_idx=0)
      (f_16): Embedding(13, 70, padding_idx=0)
      (f_24): Embedding(5, 70, padding_idx=0)
      (f_44): Embedding(22, 70, padding_idx=0)
      (f_77): Embedding(5, 70, padding_idx=0)
      (f_9): Embedding(8, 70, padding_idx=0)
      (f_64): DenseEmbedding(
        embedding_dim=70, bias=False, batch_norm=True
        (batch_norm_layer): BatchNorm1d(1, eps=1e-05, momentum=0.1, affine=True, track_running_stats=True)
        (weight): Linear(in_features=1, out_features=70, bias=False)
      )
      (f_18): Embedding(925, 70, padding_idx=0)
      (f_55): Embedding(390, 70, padding_idx=0)
      (f_54): Embedding(213, 70, padding_idx=0)
      (f_72): Embedding(12, 70, padding_idx=0)
      (f_1): DenseEmbedding(
        embedding_dim=70, bias=False, batch_norm=True
        (batch_norm_layer): BatchNorm1d(1, eps=1e-05, momentum=0.1, affine=True, track_running_stats=True)
        (weight): Linear(in_features=1, out_features=70, bias=False)
      )
      (f_58): DenseEmbedding(
        embedding_dim=70, bias=False, batch_norm=True
        (batch_norm_layer): BatchNorm1d(1, eps=1e-05, momentum=0.1, affine=True, track_running_stats=True)
        (weight): Linear(in_features=1, out_features=70, bias=False)
      )
      (f_4): Embedding(639, 70, padding_idx=0)
      (f_61): Embedding(826, 70, padding_idx=0)
      (f_78): Embedding(14, 70, padding_idx=0)
      (f_22): Embedding(27, 70, padding_idx=0)
      (f_31): Embedding(3, 70, padding_idx=0)
      (f_62): Embedding(1397, 70, padding_idx=0)
    )
  )
  (cross_net): CrossNetworkV2(
    embed_dim=5320, num_layers=4
    (linear): ModuleList(
      (0-3): 4 x Linear(in_features=5320, out_features=5320, bias=True)
    )
  )
  (mlp): MLPModule(
    (model): Sequential(
      (0): Dropout(p=0.1, inplace=False)
      (1): Linear(in_features=5320, out_features=256, bias=True)
      (2): BatchNorm1d(256, eps=1e-05, momentum=0.1, affine=True, track_running_stats=True)
      (3): ReLU()
      (4): Dropout(p=0.1, inplace=False)
      (5): Linear(in_features=256, out_features=256, bias=True)
      (6): BatchNorm1d(256, eps=1e-05, momentum=0.1, affine=True, track_running_stats=True)
      (7): ReLU()
      (8): Dropout(p=0.1, inplace=False)
      (9): Linear(in_features=256, out_features=256, bias=True)
      (10): BatchNorm1d(256, eps=1e-05, momentum=0.1, affine=True, track_running_stats=True)
      (11): ReLU()
      (12): Dropout(p=0.1, inplace=False)
      (13): Linear(in_features=256, out_features=1, bias=True)
    )
  )
)
[2023-06-21 00:28:34] INFO GPU id [1] are selected.
[2023-06-21 00:38:47] INFO Training: Epoch=  0 [logloss=0.3877 accuracy=0.8240 f1=0.2512 precision=0.6200 recall=0.1576 auc=0.8199 train_loss_0=0.2694]
[2023-06-21 00:38:48] INFO Train time: 602.82505s. Valid time: 7.91817s. GPU RAM: 3.61/39.39 GB
[2023-06-21 00:38:48] INFO logloss improved. Best value: 0.3877
…
