…
	ann=None
	batch_size=512
	early_stop_mode=min
	early_stop_patience=10
	epochs=1000
	gpu=[0]
	grad_clip_norm=None
	init_method=xavier_normal
	item_batch_size=1024
	learner=adam
	learning_rate=0.001
	num_threads=10
	sampling_method=none
	sampler=uniform
	negative_count=0
	excluding_hist=False
	scheduler=exponential
	seed=2022
	weight_decay=3e-05
	tensorboard_path=None
[2023-06-19 15:05:47] INFO save_dir:./saved/
[2023-06-19 15:05:47] INFO DCNv2(
  (loss_fn): BCEWithLogitLoss()
  (embedding): Embeddings(
    num_features=76, embed_dim=50, reduction=mean
    (embeddings): ModuleDict(
      (weekday): Embedding(8, 50, padding_idx=0)
      (f_60): Embedding(232, 50, padding_idx=0)
      (f_62): Embedding(1032, 50, padding_idx=0)
      (f_67): DenseEmbedding(
        embedding_dim=50, bias=False, batch_norm=True
        (batch_norm_layer): BatchNorm1d(1, eps=1e-05, momentum=0.1, affine=True, track_running_stats=True)
        (weight): Linear(in_features=1, out_features=50, bias=False)
      )
      (f_68): DenseEmbedding(
        embedding_dim=50, bias=False, batch_norm=True
        (batch_norm_layer): BatchNorm1d(1, eps=1e-05, momentum=0.1, affine=True, track_running_stats=True)
        (weight): Linear(in_features=1, out_features=50, bias=False)
      )
      (f_70): DenseEmbedding(
        embedding_dim=50, bias=False, batch_norm=True
        (batch_norm_layer): BatchNorm1d(1, eps=1e-05, momentum=0.1, affine=True, track_running_stats=True)
        (weight): Linear(in_features=1, out_features=50, bias=False)
      )
      (f_42): Embedding(6725, 50, padding_idx=0)
      (f_37): Embedding(3, 50, padding_idx=0)
      (f_11): Embedding(25, 50, padding_idx=0)
      (f_55): Embedding(306, 50, padding_idx=0)
      (f_66): DenseEmbedding(
        embedding_dim=50, bias=False, batch_norm=True
        (batch_norm_layer): BatchNorm1d(1, eps=1e-05, momentum=0.1, affine=True, track_running_stats=True)
        (weight): Linear(in_features=1, out_features=50, bias=False)
      )
      (f_49): Embedding(15, 50, padding_idx=0)
      (f_61): Embedding(584, 50, padding_idx=0)
      (f_1): DenseEmbedding(
        embedding_dim=50, bias=False, batch_norm=True
        (batch_norm_layer): BatchNorm1d(1, eps=1e-05, momentum=0.1, affine=True, track_running_stats=True)
        (weight): Linear(in_features=1, out_features=50, bias=False)
      )
      (f_10): Embedding(4, 50, padding_idx=0)
      (f_47): Embedding(21, 50, padding_idx=0)
      (f_31): Embedding(3, 50, padding_idx=0)
      (f_59): DenseEmbedding(
        embedding_dim=50, bias=False, batch_norm=True
        (batch_norm_layer): BatchNorm1d(1, eps=1e-05, momentum=0.1, affine=True, track_running_stats=True)
        (weight): Linear(in_features=1, out_features=50, bias=False)
      )
      (f_57): Embedding(415, 50, padding_idx=0)
      (f_53): Embedding(85, 50, padding_idx=0)
      (f_56): Embedding(182, 50, padding_idx=0)
      (f_32): Embedding(5, 50, padding_idx=0)
      (f_52): Embedding(133, 50, padding_idx=0)
      (f_71): Embedding(5, 50, padding_idx=0)
      (f_75): Embedding(32, 50, padding_idx=0)
      (f_58): DenseEmbedding(
        embedding_dim=50, bias=False, batch_norm=True
        (batch_norm_layer): BatchNorm1d(1, eps=1e-05, momentum=0.1, affine=True, track_running_stats=True)
        (weight): Linear(in_features=1, out_features=50, bias=False)
      )
      (f_16): Embedding(11, 50, padding_idx=0)
      (f_22): Embedding(25, 50, padding_idx=0)
      (f_13): Embedding(206, 50, padding_idx=0)
      (f_48): Embedding(21, 50, padding_idx=0)
      (f_76): Embedding(9, 50, padding_idx=0)
      (f_35): Embedding(3, 50, padding_idx=0)
      (f_74): Embedding(5, 50, padding_idx=0)
      (f_21): Embedding(35, 50, padding_idx=0)
      (f_78): Embedding(11, 50, padding_idx=0)
      (f_14): Embedding(19, 50, padding_idx=0)
      (f_40): Embedding(3, 50, padding_idx=0)
      (f_25): Embedding(4, 50, padding_idx=0)
      (f_26): Embedding(3, 50, padding_idx=0)
      (f_24): Embedding(5, 50, padding_idx=0)
      (f_63): Embedding(298, 50, padding_idx=0)
      (f_64): DenseEmbedding(
        embedding_dim=50, bias=False, batch_norm=True
        (batch_norm_layer): BatchNorm1d(1, eps=1e-05, momentum=0.1, affine=True, track_running_stats=True)
        (weight): Linear(in_features=1, out_features=50, bias=False)
      )
      (f_43): DenseEmbedding(
        embedding_dim=50, bias=False, batch_norm=True
        (batch_norm_layer): BatchNorm1d(1, eps=1e-05, momentum=0.1, affine=True, track_running_stats=True)
        (weight): Linear(in_features=1, out_features=50, bias=False)
      )
      (f_3): Embedding(6, 50, padding_idx=0)
      (f_9): Embedding(8, 50, padding_idx=0)
      (f_38): Embedding(3, 50, padding_idx=0)
      (f_4): Embedding(631, 50, padding_idx=0)
      (f_12): Embedding(25, 50, padding_idx=0)
      (f_79): Embedding(7, 50, padding_idx=0)
      (f_45): Embedding(19, 50, padding_idx=0)
      (f_17): Embedding(42, 50, padding_idx=0)
      (f_41): Embedding(3, 50, padding_idx=0)
      (f_30): Embedding(3, 50, padding_idx=0)
      (f_19): Embedding(20, 50, padding_idx=0)
      (f_69): DenseEmbedding(
        embedding_dim=50, bias=False, batch_norm=True
        (batch_norm_layer): BatchNorm1d(1, eps=1e-05, momentum=0.1, affine=True, track_running_stats=True)
        (weight): Linear(in_features=1, out_features=50, bias=False)
      )
      (f_20): Embedding(56, 50, padding_idx=0)
      (f_54): Embedding(172, 50, padding_idx=0)
      (f_72): Embedding(12, 50, padding_idx=0)
      (f_46): Embedding(11, 50, padding_idx=0)
      (f_18): Embedding(543, 50, padding_idx=0)
      (f_5): Embedding(7, 50, padding_idx=0)
      (f_36): Embedding(3, 50, padding_idx=0)
      (f_6): Embedding(4455, 50, padding_idx=0)
      (f_77): Embedding(5, 50, padding_idx=0)
      (f_44): Embedding(18, 50, padding_idx=0)
      (f_15): Embedding(4277, 50, padding_idx=0)
      (f_65): DenseEmbedding(
        embedding_dim=50, bias=False, batch_norm=True
        (batch_norm_layer): BatchNorm1d(1, eps=1e-05, momentum=0.1, affine=True, track_running_stats=True)
        (weight): Linear(in_features=1, out_features=50, bias=False)
      )
      (f_73): Embedding(9, 50, padding_idx=0)
      (f_8): Embedding(7, 50, padding_idx=0)
      (f_23): Embedding(5, 50, padding_idx=0)
      (f_2): Embedding(136, 50, padding_idx=0)
      (f_50): Embedding(22, 50, padding_idx=0)
      (f_51): Embedding(1725, 50, padding_idx=0)
      (f_33): Embedding(3, 50, padding_idx=0)
      (f_39): Embedding(3, 50, padding_idx=0)
      (f_34): Embedding(3, 50, padding_idx=0)
    )
  )
  (cross_net): CrossNetworkV2(
    embed_dim=3800, num_layers=4
    (linear): ModuleList(
      (0-3): 4 x Linear(in_features=3800, out_features=3800, bias=True)
    )
  )
  (mlp): MLPModule(
    (model): Sequential(
      (0): Dropout(p=0, inplace=False)
      (1): Linear(in_features=3800, out_features=256, bias=True)
      (2): BatchNorm1d(256, eps=1e-05, momentum=0.1, affine=True, track_running_stats=True)
      (3): ReLU()
      (4): Dropout(p=0, inplace=False)
      (5): Linear(in_features=256, out_features=256, bias=True)
      (6): BatchNorm1d(256, eps=1e-05, momentum=0.1, affine=True, track_running_stats=True)
      (7): ReLU()
      (8): Dropout(p=0, inplace=False)
      (9): Linear(in_features=256, out_features=256, bias=True)
      (10): BatchNorm1d(256, eps=1e-05, momentum=0.1, affine=True, track_running_stats=True)
      (11): ReLU()
      (12): Dropout(p=0, inplace=False)
      (13): Linear(in_features=256, out_features=1, bias=True)
    )
  )
)
[2023-06-19 15:05:47] INFO GPU id [0] are selected.
[2023-06-19 15:06:52] INFO Training: Epoch=  0 [logloss=0.3818 accuracy=0.8239 f1=0.2907 precision=0.6039 recall=0.1916 auc=0.8155 train_loss_0=0.2741]
[2023-06-19 15:06:52] INFO Train time: 63.67227s. Valid time: 0.40651s. GPU RAM: 1.99/10.76 GB
[2023-06-19 15:06:52] INFO logloss improved. Best value: 0.3818
…
