…
	accelerator=gpu
	ann=None
	batch_size=512
	early_stop_mode=min
	early_stop_patience=10
	epochs=1000
	gpu=[5]
	grad_clip_norm=None
	init_method=xavier_normal
	item_batch_size=1024
	learner=adam
	learning_rate=0.001
	num_threads=10
	sampling_method=none
	sampler=uniform
	negative_count=0
	excluding_hist=False
	scheduler=exponential
	seed=2022
	weight_decay=3e-05
	tensorboard_path=None
[2023-06-19 15:32:07] INFO save_dir:./saved/
[2023-06-19 15:32:07] INFO DCNv2(
  (loss_fn): BCEWithLogitLoss()
  (embedding): Embeddings(
    num_features=76, embed_dim=30, reduction=mean
    (embeddings): ModuleDict(
      (f_34): Embedding(3, 30, padding_idx=0)
      (f_31): Embedding(3, 30, padding_idx=0)
      (f_10): Embedding(8, 30, padding_idx=0)
      (f_77): Embedding(9, 30, padding_idx=0)
      (f_22): Embedding(35, 30, padding_idx=0)
      (f_25): Embedding(5, 30, padding_idx=0)
      (f_70): DenseEmbedding(
        embedding_dim=30, bias=False, batch_norm=True
        (batch_norm_layer): BatchNorm1d(1, eps=1e-05, momentum=0.1, affine=True, track_running_stats=True)
        (weight): Linear(in_features=1, out_features=30, bias=False)
      )
      (f_2): Embedding(23, 30, padding_idx=0)
      (f_9): Embedding(7, 30, padding_idx=0)
      (f_39): Embedding(3, 30, padding_idx=0)
      (f_78): Embedding(5, 30, padding_idx=0)
      (f_51): Embedding(22, 30, padding_idx=0)
      (f_45): Embedding(18, 30, padding_idx=0)
      (f_5): Embedding(631, 30, padding_idx=0)
      (f_53): Embedding(133, 30, padding_idx=0)
      (f_74): Embedding(9, 30, padding_idx=0)
      (f_40): Embedding(3, 30, padding_idx=0)
      (f_65): DenseEmbedding(
        embedding_dim=30, bias=False, batch_norm=True
        (batch_norm_layer): BatchNorm1d(1, eps=1e-05, momentum=0.1, affine=True, track_running_stats=True)
        (weight): Linear(in_features=1, out_features=30, bias=False)
      )
      (f_63): Embedding(1032, 30, padding_idx=0)
      (f_71): Embedding(1656, 30, padding_idx=0)
      (f_58): DenseEmbedding(
        embedding_dim=30, bias=False, batch_norm=True
        (batch_norm_layer): BatchNorm1d(1, eps=1e-05, momentum=0.1, affine=True, track_running_stats=True)
        (weight): Linear(in_features=1, out_features=30, bias=False)
      )
      (f_12): Embedding(25, 30, padding_idx=0)
      (f_69): DenseEmbedding(
        embedding_dim=30, bias=False, batch_norm=True
        (batch_norm_layer): BatchNorm1d(1, eps=1e-05, momentum=0.1, affine=True, track_running_stats=True)
        (weight): Linear(in_features=1, out_features=30, bias=False)
      )
      (f_15): Embedding(19, 30, padding_idx=0)
      (f_36): Embedding(3, 30, padding_idx=0)
      (f_42): Embedding(3, 30, padding_idx=0)
      (f_76): Embedding(32, 30, padding_idx=0)
      (f_56): Embedding(306, 30, padding_idx=0)
      (f_16): Embedding(4277, 30, padding_idx=0)
      (f_72): Embedding(5, 30, padding_idx=0)
      (f_11): Embedding(4, 30, padding_idx=0)
      (f_26): Embedding(4, 30, padding_idx=0)
      (f_3): Embedding(136, 30, padding_idx=0)
      (f_73): Embedding(12, 30, padding_idx=0)
      (f_55): Embedding(172, 30, padding_idx=0)
      (f_1): DenseEmbedding(
        embedding_dim=30, bias=False, batch_norm=True
        (batch_norm_layer): BatchNorm1d(1, eps=1e-05, momentum=0.1, affine=True, track_running_stats=True)
        (weight): Linear(in_features=1, out_features=30, bias=False)
      )
      (f_54): Embedding(85, 30, padding_idx=0)
      (f_52): Embedding(1725, 30, padding_idx=0)
      (f_47): Embedding(11, 30, padding_idx=0)
      (f_14): Embedding(206, 30, padding_idx=0)
      (f_64): DenseEmbedding(
        embedding_dim=30, bias=False, batch_norm=True
        (batch_norm_layer): BatchNorm1d(1, eps=1e-05, momentum=0.1, affine=True, track_running_stats=True)
        (weight): Linear(in_features=1, out_features=30, bias=False)
      )
      (f_30): Embedding(3, 30, padding_idx=0)
      (f_6): Embedding(7, 30, padding_idx=0)
      (f_37): Embedding(3, 30, padding_idx=0)
      (f_35): Embedding(3, 30, padding_idx=0)
      (f_24): Embedding(5, 30, padding_idx=0)
      (f_19): Embedding(543, 30, padding_idx=0)
      (f_57): Embedding(182, 30, padding_idx=0)
      (f_66): DenseEmbedding(
        embedding_dim=30, bias=False, batch_norm=True
        (batch_norm_layer): BatchNorm1d(1, eps=1e-05, momentum=0.1, affine=True, track_running_stats=True)
        (weight): Linear(in_features=1, out_features=30, bias=False)
      )
      (f_8): Embedding(4455, 30, padding_idx=0)
      (f_60): Embedding(1518, 30, padding_idx=0)
      (f_33): Embedding(5, 30, padding_idx=0)
      (f_67): DenseEmbedding(
        embedding_dim=30, bias=False, batch_norm=True
        (batch_norm_layer): BatchNorm1d(1, eps=1e-05, momentum=0.1, affine=True, track_running_stats=True)
        (weight): Linear(in_features=1, out_features=30, bias=False)
      )
      (f_50): Embedding(15, 30, padding_idx=0)
      (f_23): Embedding(25, 30, padding_idx=0)
      (f_17): Embedding(11, 30, padding_idx=0)
      (f_21): Embedding(56, 30, padding_idx=0)
      (f_49): Embedding(21, 30, padding_idx=0)
      (f_13): Embedding(25, 30, padding_idx=0)
      (f_41): Embedding(3, 30, padding_idx=0)
      (f_61): Embedding(232, 30, padding_idx=0)
      (f_46): Embedding(19, 30, padding_idx=0)
      (f_68): DenseEmbedding(
        embedding_dim=30, bias=False, batch_norm=True
        (batch_norm_layer): BatchNorm1d(1, eps=1e-05, momentum=0.1, affine=True, track_running_stats=True)
        (weight): Linear(in_features=1, out_features=30, bias=False)
      )
      (f_59): DenseEmbedding(
        embedding_dim=30, bias=False, batch_norm=True
        (batch_norm_layer): BatchNorm1d(1, eps=1e-05, momentum=0.1, affine=True, track_running_stats=True)
        (weight): Linear(in_features=1, out_features=30, bias=False)
      )
      (f_38): Embedding(3, 30, padding_idx=0)
      (f_20): Embedding(20, 30, padding_idx=0)
      (f_4): Embedding(6, 30, padding_idx=0)
      (is_clicked): DenseEmbedding(
        embedding_dim=30, bias=False, batch_norm=True
        (batch_norm_layer): BatchNorm1d(1, eps=1e-05, momentum=0.1, affine=True, track_running_stats=True)
        (weight): Linear(in_features=1, out_features=30, bias=False)
      )
      (f_48): Embedding(21, 30, padding_idx=0)
      (f_75): Embedding(5, 30, padding_idx=0)
      (f_43): DenseEmbedding(
        embedding_dim=30, bias=False, batch_norm=True
        (batch_norm_layer): BatchNorm1d(1, eps=1e-05, momentum=0.1, affine=True, track_running_stats=True)
        (weight): Linear(in_features=1, out_features=30, bias=False)
      )
      (f_18): Embedding(42, 30, padding_idx=0)
      (f_44): Embedding(1707, 30, padding_idx=0)
      (f_79): Embedding(11, 30, padding_idx=0)
      (f_62): Embedding(584, 30, padding_idx=0)
      (f_32): Embedding(3, 30, padding_idx=0)
    )
  )
  (cross_net): CrossNetworkV2(
    embed_dim=2280, num_layers=4
    (linear): ModuleList(
      (0-3): 4 x Linear(in_features=2280, out_features=2280, bias=True)
    )
  )
  (mlp): MLPModule(
    (model): Sequential(
      (0): Dropout(p=0, inplace=False)
      (1): Linear(in_features=2280, out_features=256, bias=True)
      (2): BatchNorm1d(256, eps=1e-05, momentum=0.1, affine=True, track_running_stats=True)
      (3): ReLU()
      (4): Dropout(p=0, inplace=False)
      (5): Linear(in_features=256, out_features=256, bias=True)
      (6): BatchNorm1d(256, eps=1e-05, momentum=0.1, affine=True, track_running_stats=True)
      (7): ReLU()
      (8): Dropout(p=0, inplace=False)
      (9): Linear(in_features=256, out_features=256, bias=True)
      (10): BatchNorm1d(256, eps=1e-05, momentum=0.1, affine=True, track_running_stats=True)
      (11): ReLU()
      (12): Dropout(p=0, inplace=False)
      (13): Linear(in_features=256, out_features=1, bias=True)
    )
  )
)
[2023-06-19 15:32:07] INFO GPU id [5] are selected.
[2023-06-19 15:32:59] INFO Training: Epoch=  0 [logloss=0.3820 accuracy=0.8241 f1=0.3039 precision=0.5989 recall=0.2038 auc=0.8117 train_loss_0=0.2735]
[2023-06-19 15:32:59] INFO Train time: 51.41234s. Valid time: 0.20508s. GPU RAM: 0.78/10.76 GB
[2023-06-19 15:32:59] INFO logloss improved. Best value: 0.3820
…
